code/models/checkpoint.pt (torch, 517452 bytes, 48 tensors)

conv1.weight f4 [16, 3, 5, 5]
-0.004866792 0.41581112 0.14457539 -0.056211326 0.4074984 0.5344861 -0.31407022 0.5570885
0.3232833 0.03708346 0.12747122 0.49200958 -0.1432063 -0.31387252 0.6746052 -0.31818473
-0.46259716 0.49512568 1.055686 -1.1133162 -0.28129563 0.39721227 -0.7082109 0.20568435
0.78602016 0.17999953 0.88747823 0.30194107 -0.15956244 0.50846237 0.3501521 -0.15929751
0.56640273 0.27522817 0.08468866 0.08067357 0.20693456 -0.28667083 -0.38895783 0.640205
-0.15843618 -0.49146685 0.5301481 1.0435139 -1.1545548 -0.24221528 0.29407358 -0.65093446
0.050491877 0.98277575 0.45755622 0.6246119 0.22907501 -0.37119904 0.31023064 0.41182745
-0.56162477 0.7184561 0.121707365 -0.16792221 0.25020647 -0.10405628 -0.12435221 -0.45282766
0.64385855 -0.053484097 -0.49537143 0.46657276 0.9743174 -0.9793016 -0.13663135 0.45275673
-0.68226725 0.059588615 0.8209784 -0.17041165 0.22232434 -0.20333599 -0.5493735 0.027628843
0.26914996 0.18230449 0.1508893 0.83024955 0.16976772 -0.09308034 -0.11273433 -0.4820487
0.14404762 -0.12847781 -0.71691155 0.8232743 0.23648268 -0.0876055 0.03235219 0.16099384
-0.042051584 -1.6037937 -1.5970056 0.4876295 0.26473156 0.6258012 -0.24069913 -1.0908692
-0.050482634 0.19503658 0.72252303 0.18237013 1.0697902 0.24425375 -0.31866068 -0.35911644
-0.524225 0.062352423 -0.22612844 -0.54849297 1.0653751 0.50422627 0.0075960816 0.101964794
0.25730035 -0.068568096 -1.317172 -1.058826 0.35997573 -0.25502536 0.4864951 -0.26074663
-0.66790426 0.102777906 -0.29443488 0.34461114 0.34615475 1.4464085 0.34330586 -0.56473464
-0.26565054 -0.47195804 -0.032770056 -0.12343661 -0.90311974 0.95632845 0.5240665 -0.33940133
0.22452489 0.34723458 -0.1914967 -1.4778359 -1.264764 0.19006841 0.2544275 -0.11606132
-0.14407137 0.20187627 0.08275637 -0.3044545 0.0880192 0.3686424 0.18745854 -0.4198058
0.33994487 0.4793317 0.08657039 -0.40603173 0.45265266 -0.91553694 0.16346818 0.06121063
-0.6986414 0.29345468 1.0929334 0.20808664 -0.067609705 1.7058407 -0.1456764 0.33174455
-0.34283945 0.10150459 1.2149421 0.37776637 -0.21532829 -0.19117132 0.32862198 0.36036602
-0.23681581 0.53624135 0.58281064 0.043532718 -0.4647692 0.37131232 -0.84044635 0.1043704
-0.0015952206 -0.6019358 0.35163835 1.1595746 0.29701757 -0.46873817 1.666544 -0.085808784
0.6350803 -0.3995881 -0.12685633 0.21600473 0.17037961 -0.07637299 -0.5762391 0.017151907
0.2705083 -0.37471682 1.074367 0.42077285 -0.04383618 -0.5871645 0.24281271 -0.69126976
0.08708953 -0.13742067 -0.7524288 0.25499246 1.2443516 0.13831894 -0.42386797 1.4634433
-0.13802539 -0.34811494 -1.0418441 -0.6475384 -0.60184366 -0.86069727 -0.42749423 -0.2647715
-0.12939061 0.47878435 -0.3811211 -0.75121075 0.12592348 -0.799408 -0.34519023 0.26853156
0.45205107 -0.077632844 0.08411108 0.8347449 -0.3952765 -0.011627789 0.9427112 0.6470139
-0.85990494 1.0570908 0.4467638 0.22856537 0.03425939 -0.4695889 -0.24437952 0.17774788
00000000: 9c79 9fbb 32e5 d43e 920b 143e d93d 66bd
00000010: a1a3 d03e 15d4 083f d0cd a0be 5a9d 0e3f
00000020: 6485 a53e d3e4 173d d187 023e aee8 fb3e
00000030: aca4 12be e6b3 a0be edb2 2c3f 1ce9 a2be
00000040: 89d9 ecbe 1d81 fd3e b820 873f 2581 8ebf
00000050: fb05 90be 685f cb3e 4f4d 35bf eb9e 523e
00000060: 9e38 493f cc51 383e c631 633f 0598 9a3e
00000070: 5664 23be 972a 023f 2347 b33e e31e 23be
00000080: c5ff 103f b5ea 8c3e 4071 ad3d 2f38 a53d
00000090: a7e6 533e 85c6 92be 7b25 c7be 7ae4 233f
000000a0: 183d 22be 8ba1 fbbe c9b7 073f dd91 853f
000000b0: 74c8 93bf 4807 78be d090 963e a4a3 26bf
000000c0: 92d0 4e3d 3197 7b3f cf44 ea3e 91e6 1f3f
000000d0: a492 6a3e cd0d bebe 8dd6 9e3e 0cdb d23e
000000e0: a4c6 0fbf bdec 373f b641 f93d cdf3 2bbe
000000f0: 101b 803e 751b d5bd 5fac febd 07d9 e7be
00000100: ead3 243f 2412 5bbd 53a1 fdbe a0e2 ee3e
00000110: dd6c 793f 82b3 7abf 17e9 0bbe bbcf e73e
00000120: 11a9 2ebf 3113 743d a42b 523f 6480 2ebe
00000130: fea8 633e 4f37 50be bea3 0cbf e255 e23c
00000140: 06ce 893e 07ae 3a3e ba82 1a3e 3c8b 543f
00000150: 97d7 2d3e e8a0 bebd 42e1 e6bd 16cf f6be
00000160: 3881 133e b08f 03be 8487 37bf 1bc2 523f
00000170: 8428 723e 836a b3bd bb83 043d 92db 243e
00000180: 483e 2cbd 1d49 cdbf ae6a ccbf 93aa f93e
00000190: e58a 873e 8234 203f d579 76be 9aa1 8bbf
000001a0: e1c6 4ebd abb7 473e 45f7 383f 3cbf 3a3e
000001b0: e3ee 883f a81d 7a3e 7e27 a3be 1cde b7be
000001c0: 9c33 06bf 4165 7f3d 378e 67be 096a 0cbf
000001d0: 365e 883f f914 013f 8de8 f83b ebd2 d03d
000001e0: dfbc 833e 6e6d 8cbd 1899 a8bf 9c87 87bf
000001f0: bd4e b83e af92 82be e315 f93e 9580 85be
00000200: c6fb 2abf 397d d23d 2bc0 96be df70 b03e
00000210: 323b b13e ea23 b93f c9c5 af3e 7392 10bf
00000220: 5903 88be 7ca4 f1be e539 06bd 55cc fcbd
00000230: db32 67bf f1d1 743f 3929 063f 03c6 adbe
00000240: dae9 653e bbc8 b13e b617 44be ba29 bdbf
00000250: c9e3 a1bf 4ba1 423e 5244 823e 8fb1 edbd
00000260: 7287 13be a7b8 4e3e 2c7c a93d 76e1 9bbe
00000270: 6943 b43d b2be bc3e 22f5 3f3e c9f0 d6be
00000280: 410d ae3e f76a f53e d14b b13d 64e3 cfbe
00000290: 17c2 e73e a160 6abf 3464 273e ffb7 7a3d
000002a0: 2ada 32bf b13f 963e 3ee5 8b3f aa14 553e
000002b0: f576 8abd fd58 da3f 322c 15be 6cda a93e
000002c0: a788 afbe a3e1 cf3d 3983 9b3f 986a c13e
000002d0: 057f 5cbe 6ac2 43be 2441 a83e e581 b83e
000002e0: d87f 72be 1d47 093f 1433 153f 5d4f 323d
000002f0: 3bf6 edbe a61c be3e 7e27 57bf 26c0 d53d
00000300: b916 d1ba 7718 1abf f109 b43e f16c 943f
00000310: b012 983e 73fe efbe 5051 d53f 84bc afbd
00000320: 9f94 223f d096 ccbe a0e6 01be 5830 5d3e
00000330: fe77 2e3e 7169 9cbd 6884 13bf 2882 8c3c
00000340: 1080 8a3e e2da bfbe dc84 893f 8a6f d73e
00000350: 918d 33bd 6a50 16bf e5a3 783e 0ef7 30bf
00000360: ff5b b23d 01b8 0cbe 2d9f 40bf 5f8e 823e
00000370: ea46 9f3f 7ba3 0d3e 3905 d9be 1c52 bb3f
00000380: 8756 0dbe 1f3c b2be 265b 85bf 14c5 25bf
00000390: 6d12 1abf a856 5cbf 86e0 dabe 2190 87be
000003a0: f97e 04be 3923 f53e 4e22 c3be 594f 40bf
000003b0: 16f2 003e 01a6 4cbf c6bc b0be f87c 893e
000003c0: 3d73 e73e f8fd 9ebd 6e42 ac3d d7b1 553f
000003d0: ae61 cabe 7b82 3ebc 8555 713f b4a2 253f
000003e0: bb22 5cbf c04e 873f 3abe e43e 0a0d 6a3e
000003f0: 9353 0c3d f56d f0be a03e 7abe 8a03 363e

conv1.bias f4 [16]
0.90182126 -0.3820056 -0.32567492 -1.7626233 1.269722 0.09711557 -0.27192512 0.4181686
-0.142701 -0.26089132 -0.23483862 -0.39210308 0.045731224 -0.67150325 0.17947467 -0.6358506
00000000: c2dd 663f 3d96 c3be ddbe a6be a49d e1bf
00000010: 4086 a23f 87e4 c63d c539 8bbe 321a d63e
00000020: 3620 12be 8c93 85be 8979 70be bcc1 c8be
00000030: aa50 3b3d a3e7 2bbf 35c8 373e 1bc7 22bf

bn1.weight f4 [16]
1.1847173 0.7478273 0.86900294 0.8253216 1.4244585 1.7136196 1.0884122 1.329777
1.4518023 1.5304588 1.0787014 1.0275844 0.76269567 0.85881287 1.3553654 1.1826458
00000000: d1a4 973f 9c71 3f3f fa76 5e3f 4748 533f
00000010: a854 b63f e357 db3f 1751 8b3f 2236 aa3f
00000020: a8d4 b93f 13e6 c33f e312 8a3f e387 833f
00000030: 0640 433f 29db 5b3f 9d7c ad3f f060 973f

bn1.bias f4 [16]
0.018114125 0.008408736 0.045634754 0.985132 -0.022332888 0.14964965 -0.008077787 -1.2041129
-1.5614401 1.4430661 0.46498016 0.77275777 0.49231577 -0.07471099 0.6473431 0.5307188
00000000: 1364 943c ccc4 093c 82eb 3a3d 9c31 7c3f
00000010: 76f3 b6bc c23d 193e b258 04bc 5f20 9abf
00000020: 45dd c7bf 64b6 b83f e111 ee3e 74d3 453f
00000030: d010 fc3e 1302 99bd 47b8 253f 30dd 073f

bn1.running_mean f4 [16]
0.9016272 -0.38279378 -0.32553738 -1.7639046 1.2683946 0.09602764 -0.27145162 0.4187608
-0.14272954 -0.2599964 -0.23575819 -0.39229488 0.045913078 -0.6709424 0.1792317 -0.636092
00000000: 0ad1 663f 8cfd c3be d6ac a6be a0c7 e1bf
00000010: c15a a23f 24aa c43d b5fb 8abe d167 d63e
00000020: b127 12be 401e 85be 986a 71be e0da c8be
00000030: 5a0f 3c3d e2c2 2bbf 8488 373e edd6 22bf

bn1.running_var f4 [16]
0.0050784256 0.008555836 0.0042389925 0.004276508 0.012480521 0.01900634 0.004129364 0.009489716
0.0059308806 0.034449242 0.0048723016 0.003902028 0.0030729661 0.0035774864 0.016677888 0.019038865
00000000: ec68 a63b c72d 0c3c 3fe7 8a3b f321 8c3b
00000010: 197b 4c3c 2fb3 9b3c 9e4f 873b c17a 1b3c
00000020: d557 c23b a61a 0d3d d4a7 9f3b 2bb9 7f3b
00000030: d163 493b 4374 6a3b 11a0 883c 65f7 9b3c

conv2.weight f4 [32, 16, 5, 5]
-0.5174867 -0.4902536 -0.23853242 0.34152076 -0.7084286 0.8558707 -0.16992609 0.13478798
0.99131507 0.13862084 -0.9084543 -0.59390193 0.44903016 0.41100782 -0.104204096 -0.2559388
0.25365356 -0.5262084 -0.3407393 -0.23922744 -0.3486129 0.11648153 -0.20672072 -0.636182
0.31524986 -0.056576066 0.104195796 -0.15140864 -0.30156165 -0.15308397 -0.33570224 -1.044556
0.64009887 0.082571745 -1.631825 0.41502234 -0.16175972 -0.44232064 -0.054597624 -0.49437726
0.33987674 0.4193006 -0.44428816 0.07497536 -0.21190551 0.4780747 0.06875334 -1.1365995
0.2582617 -1.6490185 -0.6522036 0.14625143 -0.60038555 -0.24739033 -0.7108799 -0.040169347
-0.13048278 0.04217638 -1.9973745 0.42247808 0.18519565 -0.265912 0.15118305 -0.24072996
-0.40165803 0.6407849 0.83154833 0.21476027 -1.5529714 -0.5421641 0.030282924 -0.42947578
0.8303757 -0.40308318 0.07916006 0.570733 -0.3050289 0.4911731 0.4017544 -0.16487187
0.182917 -0.5828819 0.5642329 -0.18118148 -0.39656782 0.23294796 0.67009944 -1.0694301
-0.8384858 -0.14740129 -0.84569556 -0.10886786 -0.24791181 0.7872609 1.622543 0.6967518
-0.28982413 -0.16583742 -0.41973197 0.35257503 0.25681204 -0.16669947 -0.18221709 0.48790953
-0.5328013 0.7698701 -0.2580731 -1.0821186 0.3860789 -0.0051852684 -0.5692779 0.20098622
-0.29483175 -0.22105335 0.43547055 -0.3531999 -1.0619426 0.1782603 -0.32153597 -0.23333442
0.09489169 -0.6117236 0.33760434 -0.115593575 -0.81077427 0.3034945 0.3625127 -0.4631868
-0.5898014 -0.16931893 -1.0188199 -0.013443387 -0.6084313 -0.6599856 -0.32742137 -0.5040636
0.28907686 0.016662406 -0.52838683 -0.56633174 -0.7750712 0.187344 0.849897 0.29708728
0.48564577 0.49741727 0.055158876 -0.4857776 0.03477949 -0.6524299 -0.12039735 0.20464596
0.5176689 -0.5211701 -0.38262016 0.32266378 -0.8271025 -0.9790563 -0.3646589 -0.5570901
-0.09842077 0.13841712 -0.024660163 -1.0407794 -0.31371456 -0.01571756 0.25865012 -0.19889736
0.51952344 -0.14079438 0.78012663 -0.08415121 0.2287834 -0.05314777 0.57503915 -1.3380278
-0.188515 -0.8474716 0.1082282 -0.79375064 -0.1884612 0.46990323 -0.83582926 0.55534136
0.766537 -0.618342 -1.518761 -0.5615706 0.6773197 -0.48335484 0.15727347 0.06526299
0.7759462 0.0247299 -1.025755 -0.70052457 -0.5122363 -0.9670944 0.2145812 0.54325515
-0.0034352792 -0.41893566 0.35943025 0.14323275 -0.2638048 0.3900756 -0.18672273 -0.01895437
-0.2332254 0.5596378 0.49475276 -1.1921897 -0.09019079 -0.5259139 -1.2177953 -0.045624293
-0.5544189 -0.4191492 -0.28970808 -0.24623293 -0.31744775 -1.1395814 -0.1481031 0.19304201
-0.18437168 -0.129415 0.2543576 0.8429831 -0.04906199 -0.29745024 0.27120417 0.19782081
0.1953321 -0.34676272 0.52462643 -0.204353 -0.034956377 -0.007740317 0.16281341 -0.5781016
-0.30095845 0.49136868 -0.16701794 0.4531719 -0.71048975 0.69513786 0.11061249 -0.8199741
-0.6708725 -0.4739842 -2.201336 0.1086261 0.15631893 0.16404028 0.57772636 -0.89646375
00000000: 027a 04bf 8502 fbbe d841 74be cfdb ae3e
00000010: 945b 35bf 581a 5b3f 1b01 2ebe dc05 0a3e
00000020: d3c6 7d3f 9ff2 0d3e 7690 68bf f509 18bf
00000030: 48e7 e53e 9e6f d23e f568 d5bd 690a 83be
00000040: e1de 813e 98b5 06bf 6275 aebe 0af8 74be
00000050: 647d b2be de8d ee3d 99ae 53be d3dc 22bf
00000060: 6e68 a13e 4ebc 67bd 9b64 d53d de0a 1bbe
00000070: 4a66 9abe 0bc2 1cbe 2ae1 abbe 03b4 85bf
00000080: 85dd 233f 601b a93d a4df d0bf cf7d d43e
00000090: 57a4 25be da77 e2be c2a1 5fbd 041f fdbe
000000a0: 5304 ae3e 91ae d63e bd79 e3be ae8c 993d
000000b0: c2fd 58be 35c6 f43e 8dce 8c3d 187c 91bf
000000c0: e13a 843e 0a13 d3bf d1f6 26bf efc2 153e
000000d0: deb2 19bf e453 7dbe 3afc 35bf 9d88 24bd
000000e0: 479d 05be 24c1 2c3d f8a9 ffbf 0c4f d83e
000000f0: eea3 3d3e 9e25 88be bbcf 1a3e ea81 76be
00000100: 1fa6 cdbe 7b0a 243f 5ae0 543f 1eea 5b3e
00000110: c4c7 c6bf 44cb 0abf e513 f83c 40e4 dbbe
00000120: 8093 543f eb60 cebe ab1e a23d 8f1b 123f
00000130: bf2c 9cbe 0a7b fb3e c1b2 cd3e 2cd4 28be
00000140: 984e 3b3e c037 15bf 9171 103f a387 39be
00000150: f00a cbbe e989 6e3e a38b 2b3f 16e3 88bf
00000160: 01a7 56bf 5df0 16be 817f 58bf 1df6 debd
00000170: 98dc 7dbe ee89 493f 7daf cf3f 535e 323f
00000180: d463 94be 49d1 29be 1ce7 d6be b784 b43e
00000190: de7c 833e 44b3 2abe 1e97 3abe 47cf f93e
000001a0: aa65 08bf 3516 453f 2822 84be dd82 8abf
000001b0: 22ac c53e 2fe9 a9bb 32bc 11bf 55cf 4d3e
000001c0: 30f4 96be cf5b 62be fff5 de3e 9ed6 b4be
000001d0: bced 87bf de89 363e 5da0 a4be 38ef 6ebe
000001e0: 9356 c23d eb99 1cbf 7ada ac3e 53bc ecbd
000001f0: e78e 4fbf a263 9b3e 449b b93e d226 edbe
00000200: 39fd 16bf f161 2dbe b168 82bf a741 5cbc
00000210: 27c2 1bbf d1f4 28bf c6a3 a7be 500a 01bf
00000220: e201 943e 997f 883c 5c44 07bf 1efb 10bf
00000230: 116b 46bf 1bd7 3f3e da92 593f d31b 983e
00000240: 90a6 f83e 7aad fe3e 46ee 613d d7b7 f8be
00000250: f074 0e3d a505 27bf e392 f6bd b68e 513e
00000260: f385 043f 676b 05bf cae6 c3be 3034 a53e
00000270: fdbc 53bf 6fa3 7abf 92b4 babe 759d 0ebf
00000280: d490 c9bd 38bd 0d3e 1c04 cabc 4238 85bf
00000290: 329f a0be 1dc2 80bc ca6d 843e c0ab 4bbe
000002a0: 7dff 043f 672c 10be 61b6 473f 7857 acbd
000002b0: 3246 6a3e 7ab1 59bd c435 133f 7f44 abbf
000002c0: 130a 41be e6f3 58bf bfa6 dd3d 3e33 4bbf
000002d0: f9fb 40be 2897 f03e e8f8 55bf da2a 0e3f
000002e0: c53b 443f a94b 1ebf c366 c2bf 17c3 0fbf
000002f0: d364 2d3f 497a f7be 4c0c 213e 9aa8 853d
00000300: 69a4 463f 5c96 ca3c f14b 83bf 9455 33bf
00000310: eb21 03bf 8093 77bf 2dbb 5b3e c512 0b3f
00000320: 6c22 61bb bc7e d6be 3e07 b83e 9bab 123e
00000330: 6c11 87be fdb7 c73e 3e34 3fbe 3246 9bbc
00000340: a4d2 6ebe 6c44 0f3f 3c50 fd3e ac99 98bf
00000350: f3b5 b8bd 4ba2 06bf b7e0 9bbf 8ae0 3abd
00000360: 66ee 0dbf b99a d6be 9e54 94be 7c24 7cbe
00000370: 8388 a2be cedd 91bf 57a8 17be ceac 453e
00000380: eecb 3cbe 5e85 04be 293b 823e becd 573f
00000390: 3af5 48bd 664b 98be 46db 8a3e 8a91 4a3e
000003a0: 2305 483e e28a b1be eb4d 063f ea41 51be
000003b0: 6b2e 0fbd 7ca2 fdbb 8fb8 263e 77fe 13bf
000003c0: 3a17 9abe ad94 fb3e c006 2bbe 2606 e83e
000003d0: a8e2 35bf 8ef4 313f cd88 e23d d3e9 51bf
000003e0: 4dbe 2bbf 0fae f2be b0e2 0cc0 5c77 de3d
000003f0: 1212 203e 2dfa 273e e0e5 133f a67e 65bf

conv2.bias f4 [32]
0.31055224 -0.27522737 0.33797 -0.21908394 0.52389085 0.35401186 -0.35509962 -0.08299343
0.38894925 -0.23726851 0.28072342 0.15901142 -0.14537014 0.28342447 -1.3229753 -0.096302
0.14622116 0.5823234 -0.46124688 0.18564314 0.08961807 -0.11902586 -0.35735008 -0.6364192
-0.3740392 0.31538546 0.48937213 0.44561622 -0.5233117 0.09118999 -0.21723422 -0.08894527
00000000: b400 9f3e 9aea 8cbe 670a ad3e 8a57 60be
00000010: b61d 063f 0b41 b53e 9ecf b5be 76f8 a9bd
00000020: 5b24 c73e 84f6 72be fbba 8f3e e4d3 223e
00000030: e9db 14be 031d 913e 4157 a9bf fc39 c5bd
00000040: 00bb 153e 2513 153f 8d28 ecbe 3c19 3e3e
00000050: ae89 b73d d5c3 f3bd 97f6 b6be 5eec 22bf
00000060: 1182 bfbe 347a a13e fc8e fa3e cf27 e43e
00000070: c1f7 05bf d1c1 ba3d a672 5ebe f028 b6bd

bn2.weight f4 [32]
1.4915442 1.5532496 1.9148517 2.5323277 1.4121535 1.0127316 1.4420927 0.432009
2.4170995 1.1896203 1.4374324 1.4451916 1.2459974 0.7966647 1.0735569 0.8865688
1.347777 1.098338 1.4544058 2.348487 1.3619683 1.7900658 1.5142504 1.4740646
1.0987197 2.0079095 1.6015935 0.5301198 1.0644591 1.002882 1.8262653 0.43775433
00000000: ecea be3f e2d0 c63f dc19 f53f a811 2240
00000010: 72c1 b43f 30a1 813f 7e96 b83f 4930 dd3e
00000020: c2b1 1a40 7a45 983f c9fd b73f 0afc b83f
00000030: d87c 9f3f 38f2 4b3f 506a 893f 2cf6 623f
00000040: f583 ac3f 5796 8c3f f829 ba3f 9c4d 1640
00000050: fa54 ae3f e020 e53f f5d2 c13f 26ae bc3f
00000060: d9a2 8c3f 9781 0040 0401 cd3f eeb5 073f
00000070: 3240 883f 705e 803f 10c3 e93f 5621 e03e

bn2.bias f4 [32]
0.16736412 0.40345633 0.16375905 0.4572061 0.23911089 0.11034414 -0.23433521 -0.7058154
-0.42429045 0.5759712 -0.4413672 0.0883685 -0.5211514 -0.41861612 -0.15379114 0.0740727
0.19694488 0.120408 0.33287904 0.9711015 0.0842248 -0.30779672 -0.12421155 0.74605566
-0.24948598 0.7218758 -0.18695323 -1.1587375 0.30742204 0.04157443 0.32926947 -0.758955
00000000: 8061 2b3e d491 ce3e 74b0 273e eb16 ea3e
00000010: 7cd9 743e 1cfc e13d 92f5 6fbe 51b0 34bf
00000020: 993c d9be d972 133f e2fa e1be 8bfa b43d
00000030: 2e6a 05bf da54 d6be 6d7b 1dbe 6eb3 973d
00000040: ebab 493e 7898 f63d 1f6f aa3e 1c9a 783f
00000050: 0d7e ac3d 8897 9dbe a062 febd 81fd 3e3f
00000060: 4179 7fbe dacc 383f ab70 3fbe 8351 94bf
00000070: 6c66 9d3e f349 2a3d 0296 a83e e04a 42bf

bn2.running_mean f4 [32]
-15.900454 -33.91351 -33.053505 -31.843391 -26.287022 -21.922758 -13.08781 -2.860808
-28.447123 -19.672646 -31.780535 -22.004578 -22.354948 -20.57145 -10.359827 -13.942116
-33.58279 -28.708107 -25.978163 -22.38966 -22.90132 -24.406305 -20.157969 -7.979386
-9.21966 -34.974506 -31.925175 17.841 -20.304764 -17.111391 -14.942047 10.502978
00000000: 4268 7ec1 6fa7 07c2 ca36 04c2 44bf fec1
00000010: d24b d2c1 cf61 afc1 ab67 51c1 7a17 37c0
00000020: b593 e3c1 9461 9dc1 893e fec1 6009 b0c1
00000030: efd6 b2c1 5492 a4c1 dac1 25c1 e812 5fc1
00000040: c754 06c2 34aa e5c1 47d3 cfc1 061e b3c1
00000050: e735 b7c1 1d40 c3c1 8543 a1c1 2157 ffc0
00000060: ba83 13c1 e5e5 0bc2 c266 ffc1 5eba 8e41
00000070: 2870 a2c1 21e4 88c1 a012 6fc1 330c 2841

bn2.running_var f4 [32]
61.287556 91.33774 68.816124 110.846504 61.334126 45.249023 39.687946 24.000082
102.53497 60.70371 52.614426 57.05144 34.736645 25.98186 48.50493 52.067383
53.06118 39.791924 61.951237 95.71221 64.91367 56.909687 51.2011 126.95917
27.463734 151.65851 50.36451 31.04844 39.304672 40.839165 94.54445 21.02681
00000000: 7526 7542 ecac b642 dba1 8942 69b1 dd42
00000010: 2556 7542 00ff 3442 75c0 1e42 2b00 c041
00000020: e811 cd42 99d0 7242 2c75 5242 ad34 6442
00000030: 53f2 0a42 d9da cf41 0c05 4242 0045 5042
00000040: a63e 5442 ee2a 1f42 11ce 7742 a76c bf42
00000050: cdd3 8142 85a3 6342 edcd 4c42 18eb fd42
00000060: bab5 db41 94a8 1743 4275 4942 3563 f841
00000070: fc37 1d42 4e5b 2342 c216 bd42 e836 a841

conv3.weight f4 [32, 32, 5, 5]
-1.034311 -0.6650391 -0.2288552 -1.8766325 -0.56312126 0.27742657 0.6348957 -0.28061396
-0.108866565 -0.20093043 0.53792936 -0.04493608 -0.3305005 -1.4656453 -0.06733852 0.45274046
-0.8060119 0.3533069 0.5425568 -0.6300288 0.6583093 0.9169413 -0.859896 0.9286685
-0.47245005 0.27525377 -0.15793298 -0.009649828 0.6621223 0.27888846 0.23709103 -0.31976992
0.66066396 -0.023720298 0.8907967 0.22488846 -0.8563776 0.0346325 0.5918946 0.27351263
-0.10980022 -0.6096945 -0.0045691053 0.110071205 0.29126185 -1.0944681 -0.81165814 -0.6311142
-1.4233125 -0.10386231 0.12366739 0.11227866 -0.088216886 -0.64496964 -0.02411468 -0.4789581
-1.368593 0.34642515 0.76599973 0.6905874 0.5642319 0.21028164 -0.045485098 -0.26328635
0.3568589 -0.40911764 0.79368776 0.07319658 -0.038063277 -0.33198634 -0.3467626 0.26382306
-0.4715516 0.055305507 0.7080008 -0.24633066 0.3224482 0.07143191 -0.50933576 0.14563791
-0.7158266 0.19998088 0.42563584 0.64912593 0.008828488 0.06885866 0.7453088 -0.16030322
0.43768722 0.27955896 -0.56262374 0.10645978 1.0533786 0.51814306 0.3025788 -0.15696318
0.47627303 0.07441487 0.77799577 -0.54305613 1.1845846 0.3755887 0.1665654 -0.7254826
-0.72298616 -0.9586447 0.14488211 -0.054808438 -0.55521363 -0.55602986 0.035812613 -0.4845808
0.65198916 -0.017023062 0.41891795 -0.18363726 0.035825133 -0.68982786 0.50569594 -0.15240449
-0.42015454 -1.0897387 0.11216895 -0.12960355 0.05727637 -0.10114236 -0.5055249 -0.34558985
0.47542 -0.014740413 -0.75155413 0.046446275 0.75911444 0.98417187 0.8257125 0.07557183
0.3240805 -0.10656656 -0.5864138 -0.05013509 -0.46051893 0.56968755 -0.64289606 0.08092606
0.7356295 -0.35384122 -0.24197954 -0.5367154 -1.2283597 0.28995815 -0.061508078 -1.2719489
-0.15270323 0.34577823 -0.93366146 0.33421525 -0.7456702 -0.30243587 0.20434594 -0.6715655
0.042972386 -0.08808159 -0.7988028 0.2142032 0.6785511 -0.31195652 0.0058687027 0.72159046
-0.4064215 -0.95012677 -1.2607893 -1.4073193 -1.1682814 -1.9801347 -0.59588706 0.2804951
-0.8348566 -0.36100438 -0.15360886 -0.9351738 0.18621781 0.18085077 -0.41619346 0.10158584
-0.6890569 -0.13233756 -0.21447645 0.013888209 0.12904693 0.3026203 -0.30242267 -0.73098373
-0.3101448 -0.15456246 -0.39776343 -0.08158486 -0.5084367 0.6342902 -0.9665128 -0.8954622
-0.35398537 -0.37635005 0.4490585 0.72803295 0.8340507 -1.1605628 -0.70896566 -1.3392471
-0.09131745 0.17282441 -0.35262874 0.5550146 0.45492318 -0.13398689 -0.4009223 0.100552715
-1.2005758 0.03268425 1.0466486 -0.65841687 -0.32583907 -0.06667116 -0.09504896 -0.87889653
0.6741461 0.1653851 0.7430009 -0.08411838 -0.21491511 0.22886263 -0.18797664 -0.34783828
0.5893716 0.30658007 -0.82051754 0.2922064 0.24153668 0.87361264 -0.14653836 -0.29881454
0.060966287 0.3416358 0.7884319 0.37103358 0.28201926 0.5332573 0.07068379 -0.019609334
-0.13286763 0.4385476 -0.56310433 0.74775696 0.25396088 -0.6186166 -0.10437808 0.59354436
00000000: 4e64 84bf 0140 2abf 0459 6abe 7e35 f0bf
00000010: b728 10bf db0a 8e3e 8688 223f a2ac 8fbe
00000020: 6ff5 debd b5c0 4dbe bdb5 093f e50e 38bd
00000030: 5d37 a9be 449a bbbf c7e8 89bd 99cd e73e
00000040: cc56 4ebf a4e4 b43e 01e5 0a3f 9149 21bf
00000050: f586 283f aabc 6a3f 2522 5cbf 38bd 6d3f
00000060: f9e4 f1be 10ee 8c3e 2fb9 21be 501a 1ebc
00000070: d980 293f 78ca 8e3e fec7 723e e2b8 a3be
00000080: 4621 293f 1251 c2bc 410b 643f 2949 663e
00000090: 903b 5bbf cfda 0d3d 6886 173f d909 8c3e
000000a0: f0de e0bd f014 1cbf 6fb8 95bb 036d e13d
000000b0: 4620 953e 8817 8cbf d4c8 4fbf b390 21bf
000000c0: 1b2f b6bf c3b5 d4bd 5445 fd3d 5bf2 e53d
000000d0: 0eab b4bd bb1c 25bf 268c c5bc ff39 f5be
000000e0: 0e2e afbf a35e b13e 8f18 443f 56ca 303f
000000f0: 8071 103f 1254 573e 954e 3abd 78cd 86be
00000100: 36b6 b63e de77 d1be 1f2f 4b3f 17e8 953d
00000110: 3de8 1bbd 1dfa a9be de8a b1be d113 873e
00000120: 366f f1be 0788 623d 8a3f 353f 1b3e 7cbe
00000130: ee17 a53e e54a 923d d463 02bf 1b22 153e
00000140: 6940 37bf cac7 4c3e f1ec d93e 1e2d 263f
00000150: 5da5 103c c505 8d3d 8fcc 3e3f 8726 24be
00000160: 8a18 e03e 5a22 8f3e 1c08 10bf 9607 da3d
00000170: 1cd5 863f 06a5 043f 9ceb 9a3e f5ba 20be
00000180: 0fda f33e d366 983d bb2a 473f ba05 0bbf
00000190: 78a0 973f 294d c03e 1f90 2a3e 3ab9 39bf
000001a0: 9f15 39bf bd69 75bf fa5b 143e d07e 60bd
000001b0: 7b22 0ebf f957 0ebf 3fb0 123d fa1a f8be
000001c0: c3e8 263f f373 8bbc 6a7c d63e 680b 3cbe
000001d0: 60bd 123d 8f98 30bf 4a75 013f ec0f 1cbe
000001e0: 7f1e d7be 8f7c 8bbf d6b8 e53d cbb6 04be
000001f0: a09a 6a3d ba23 cfbd 146a 01bf 27f1 b0be
00000200: 406a f33e c681 71bc da65 40bf 733e 3e3d
00000210: 5355 423f b0f2 7b3f e561 533f 67c5 9a3d
00000220: e1ed a53e 923f dabd 371f 16bf 745a 4dbd
00000230: 23c9 ebbe 0bd7 113f d694 24bf 90bc a53d
00000240: 3752 3c3f ad2a b5be 7cc9 77be 2e66 09bf
00000250: e43a 9dbf 6575 943e e5ef 7bbd 39cf a2bf
00000260: 3c5e 1cbe d809 b13e 7004 6fbf 431e ab3e
00000270: 3ee4 3ebf e0d8 9abe 1040 513e b7eb 2bbf
00000280: d003 303d 1f64 b4bd 577e 4cbf 1558 5b3e
00000290: 86b5 2d3f c4b8 9fbe 3f4e c03b 27ba 383f
000002a0: 7b16 d0be 823b 73bf 8b61 a1bf 0a23 b4bf
000002b0: 3f8a 95bf 0e75 fdbf 0e8c 18bf 0e9d 8f3e
000002c0: 2ab9 55bf 91d5 b8be a44b 1dbe 8d67 6fbf
000002d0: e2af 3e3e f230 393e 4f17 d5be 3d0c d03d
000002e0: 0866 30bf 7f83 07be b79f 5bbe 5f8b 633c
000002f0: e124 043e 0cf1 9a3e 25d7 9abe c021 3bbf
00000300: 4dcb 9ebe 9f45 1ebe a6a7 cbbe f715 a7bd
00000310: e828 02bf d860 223f 626d 77bf 033d 65bf
00000320: 923d b5be f4b0 c0be ffea e53e 5e60 3a3f
00000330: 5984 553f 528d 94bf c67e 35bf 736c abbf
00000340: a504 bbbd e2f8 303e c18b b4be 7015 0e3f
00000350: b1eb e83e dc33 09be b045 cdbe 95ee cd3d
00000360: 78ac 99bf ecdf 053d 95f8 853f 028e 28bf
00000370: 61d4 a6be e48a 88bd 07a9 c2bd 5dff 60bf
00000380: d794 2c3f b65a 293e 4f35 3e3f 4246 acbd
00000390: b512 5cbe f75a 6a3e f37c 40be dc17 b2be
000003a0: 0fe1 163f 10f8 9c3e 700d 52bf 149c 953e
000003b0: 6455 773e 14a5 5f3f 270e 16be 38fe 98be
000003c0: c9b7 793d e3ea ae3e acd6 493f 1df8 bd3e
000003d0: d464 903e 8d83 083f aac2 903d c1a3 a0bc
000003e0: 740e 08be 5089 e03e 9b27 10bf 006d 3f3f
000003f0: 2907 823e a85d 1ebf 2dc4 d5bd 86f2 173f

conv3.bias f4 [32]
0.32401752 -0.06621383 0.2919986 -0.40826663 0.20368621 0.0089545995 -0.6519984 -0.36818326
-0.23261341 -0.23021206 -0.122577906 -0.1914963 -0.2848384 -0.24942173 0.22268875 -0.5928199
0.3767846 0.1790634 0.4049137 -0.2676168 -0.44817695 -0.6963371 -0.46824792 -0.1443488
0.022968583 -0.08041735 0.2827074 -0.341932 0.5054685 0.0054117674 -0.22539449 -0.16322172
00000000: a0e5 a53e 1e9b 87bd d780 953e 5308 d1be
00000010: 1e93 503e 50b6 123c 5ee9 26bf 8482 bcbe
00000020: 3632 6ebe b6bc 6bbe 200a fbbd 9b17 44be
00000030: 57d6 91be 6968 7fbe 8508 643e 0cc3 17bf
00000040: e9e9 c03e 655c 373e d950 cf3e 1205 89be
00000050: 7377 e5be 2643 32bf 31be efbe 2cd0 13be
00000060: 9c28 bc3c dab1 a4bd 06bf 903e b611 afbe
00000070: 6266 013f 3255 b13b d0cd 66be 9823 27be

bn3.weight f4 [32]
3.0865061 2.6029885 3.0617957 2.7083077 2.3835528 3.3751044 1.9655749 3.3810363
2.3020911 2.6677763 2.0594563 1.8100905 2.2948294 2.4691913 2.1200006 3.4144998
1.9718415 3.27548 2.3307145 3.1551018 3.3732355 1.5315673 1.967461 2.4262183
3.5782034 2.352332 2.6367652 1.5284024 2.2726028 2.2971606 3.3249419 2.5538268
00000000: 5189 4540 5d97 2640 76f4 4340 ea54 2d40
00000010: 218c 1840 b601 5840 f597 fb3f e662 5840
00000020: 7655 1340 d9bc 2a40 22ce 0340 0cb1 e73f
00000030: 7cde 1240 3b07 1e40 17ae 0740 2a87 5a40
00000040: 4d65 fc3f 77a1 5140 6d2a 1540 30ed 4940
00000050: 17e3 5740 660a c43f c3d5 fb3f 2947 1b40
00000060: 4901 6540 9c8c 1640 c3c0 2840 b1a2 c33f
00000070: 5372 1140 ae04 1340 d9cb 5440 e671 2340

bn3.bias f4 [32]
-1.4352973 -0.5660115 -1.4275011 -1.0832636 -0.74107313 0.21327026 0.31214565 -1.449326
-0.034461375 -0.7129899 -0.87968904 -0.29553157 -0.88713616 -0.86335623 -0.4616171 -1.7554775
0.30278417 -1.536147 -0.82915974 -1.6324755 -2.073323 -0.18911202 -0.61936766 0.31080848
-1.75001 -0.77086675 -0.85534084 -0.71804667 -0.82005423 -0.9604496 -1.3851339 -0.8609402
00000000: d2b7 b7bf 21e6 10bf 5bb8 b6bf 62a8 8abf
00000010: f8b6 3dbf 8563 5a3e 8ed1 9f3e 8483 b9bf
00000020: 5f27 0dbd 8286 36bf 4d33 61bf ea4f 97be
00000030: 5b1b 63bf ea04 5dbf 1459 ecbe 7db3 e0bf
00000040: 8706 9b3e 77a0 c4bf d043 54bf f5f4 d0bf
00000050: 53b1 04c0 95a6 41be e18e 1ebf 4a22 9f3e
00000060: 5400 e0bf 8657 45bf 9ef7 5abf e8d1 37bf
00000070: 13ef 51bf 06e0 75bf 114c b1bf 9466 5cbf

bn3.running_mean f4 [32]
-2.80785 12.151044 7.9967785 5.9035983 -6.276976 22.843994 -42.852165 1.8606688
-7.2132874 4.8347416 -4.5593452 27.392963 -0.4357976 3.701958 -0.34557185 14.90713
10.426557 6.4205313 1.285457 4.084074 7.2867084 -27.796257 9.455146 -29.679213
3.9172893 6.536905 -10.930036 -23.34879 2.3782563 -3.9166055 12.035843 -7.042506
00000000: d0b3 33c0 ad6a 4241 9ce5 ff40 47ea bc40
00000010: fddc c8c0 80c0 b641 9e68 2bc2 652a ee3f
00000020: 40d3 e6c0 34b6 9a40 28e6 91c0 ca24 db41
00000030: dd20 dfbe e1ec 6c40 cbee b0be 9b83 6e41
00000040: 2dd3 2641 fe74 cd40 db89 a43f bcb0 8240
00000050: b72c e940 bc5e dec1 4748 1741 076f edc1
00000060: deb4 7a40 532e d140 6de1 2ec1 52ca bac1
00000070: 5a35 1840 aaa9 7ac0 d092 4041 365c e1c0

bn3.running_var f4 [32]
33.426098 19.441853 31.840345 35.32036 43.438126 32.107 29.16172 40.036114
27.39963 21.953915 21.248774 18.691296 32.8919 29.792198 31.388777 22.451294
56.1056 28.015594 22.791317 39.431515 25.727325 26.002335 18.152668 41.457386
42.939682 24.455912 24.102047 29.12265 26.727196 28.60565 41.949047 15.292547
00000000: 53b4 0542 ea88 9b41 07b9 fe41 0c48 0d42
00000010: a4c0 2d42 916d 0042 344b e941 fb24 2042
00000020: 7132 db41 9ea1 af41 7dfd a941 c687 9541
00000030: 4e91 0342 6c56 ee41 371c fb41 409c b341
00000040: 226c 6042 f01f e041 9e54 b641 dfb9 1d42
00000050: 90d1 cd41 c804 d041 aa38 9141 5dd4 2542
00000060: 3cc2 2b42 b5a5 c341 fed0 c041 30fb e841
00000070: 4cd1 d541 5fd8 e441 d3cb 2742 46ae 7441

head.weight f4 [4, 512]
-0.13613844 0.9289767 0.2573928 0.41380593 0.20425946 0.5071116 0.7488043 0.5507649
-2.8916483 -0.58738005 0.3768665 0.53268975 0.29581785 1.1916002 1.206414 -1.756857
-0.12104478 0.04390542 0.49303004 0.2999479 0.60221964 0.01328015 0.7616062 0.5296719
-2.8178241 -3.2117548 0.10620362 -0.37757158 0.04963382 0.102421984 0.2837222 0.42162356
1.1560882 0.16083032 0.35279906 0.115247175 -0.13646199 1.0150814 0.7332425 0.6221293
-0.049155816 -1.1469539 0.5877931 -0.50715524 -0.38193837 -2.1529946 -2.084994 -2.746758
0.7086147 0.14001773 0.2778748 1.0362147 0.35521084 0.22492974 0.09140173 0.18654002
-1.804691 -0.39295825 -2.0011816 0.5347075 0.18455373 0.41303197 0.8034837 -0.07221532
2.097442 1.0233027 0.91029227 -0.047410037 0.40887326 0.5939171 0.24572617 0.55696195
3.142651 0.7977475 0.62825495 0.83282095 0.8664741 0.96852666 0.58545613 0.3878504
-0.006575809 -0.16051209 0.22891538 -0.045888633 -0.044488702 -0.25783855 0.027171794 0.12834074
-1.2798474 -1.3366585 -0.6980968 -0.31427944 -0.595116 0.061360955 -0.74512106 -1.0040737
0.8944279 0.9227983 0.4028335 0.6842518 0.681085 0.51747596 0.6937242 1.4253336
1.6103117 0.9205523 0.91447926 0.8968246 1.2261953 1.2560647 1.1588136 3.0055423
-0.016129503 0.8192473 0.45472452 0.27167997 0.54139566 -0.5494755 0.29626068 0.36598954
4.412814 1.756347 -0.034092363 0.88177425 0.7168293 0.4658618 0.39991775 -0.6880772
-0.21821263 -0.585951 -0.30635658 -0.15300113 -0.13177344 0.10656955 -0.3745982 -0.46465218
3.0111275 0.6883869 1.1467017 0.12530187 0.6796566 0.32288554 1.3090086 0.9636608
0.5160947 -0.2835418 -0.43544272 -0.015053978 0.080454275 0.3572599 -0.23366733 0.18262787
0.6666027 -0.16615734 1.3512346 0.68740094 0.44344428 -0.004099437 -0.5619709 -4.390024
0.66005594 1.0549861 -0.15514873 1.3165376 0.3149755 0.065263554 -0.15447061 0.62444025
2.203046 1.380959 0.8270995 0.551173 1.0544926 0.047746565 -0.9353207 2.0083075
0.5396647 0.21216951 0.38544154 1.1406254 0.6470121 0.8288247 0.39436385 1.6195444
-0.94108623 0.2921694 0.182754 0.5177781 0.009249361 0.39492363 0.07988112 -0.5576656
0.9520897 0.08149493 0.35310557 -0.32088748 -0.2358191 0.37229714 0.6088106 0.4644202
1.2589892 0.2903407 2.0477884 1.5544792 0.48544565 1.3379918 1.4631506 2.6163423
0.8311037 0.19130898 0.14598231 0.39844364 0.046765618 1.1544486 0.39579964 0.98013276
0.734232 0.16712303 -0.2931749 -1.0982578 0.16872403 -0.41879413 0.041349407 -1.7544296
0.25864604 -0.37348506 -0.07945954 0.17755549 -1.153951 -0.06653452 -0.26981387 1.2328609
-0.8501069 -0.00807143 -0.6979649 1.9490801 1.7941334 0.4536959 -0.40388733 1.0877742
0.101610646 0.08042287 -1.0412921 -1.0105882 0.5631802 0.34965184 -0.44683868 0.42037424
-0.06164557 0.8335317 1.2952288 1.3822227 0.6736878 -1.5220878 -0.2702008 5.4662004
00000000: e067 0bbe 6bd1 6d3f fdc8 833e 5fde d33e
00000010: 6429 513e 11d2 013f a3b1 3f3f eefe 0c3f
00000020: c410 39c0 8a5e 16bf a5f4 c03e 5b5e 083f
00000030: 7075 973e 5b86 983f c66b 9a3f b1e0 e0bf
00000040: 53e6 f7bd 2bd6 333d 6f6e fc3e c592 993e
00000050: 112b 1a3f fc94 593c a0f8 423f 9498 073f
00000060: 3b57 34c0 648d 4dc0 4981 d93d 1051 c1be
00000070: d54c 4b3d 9ec2 d13d 0944 913e 0bdf d73e
00000080: b3fa 933f b4b0 243e 14a2 b43e b606 ec3d
00000090: b1bc 0bbe 30ee 813f c8b5 3b3f de43 1f3f
000000a0: 9c57 49bd 63cf 92bf 9c79 163f edd4 01bf
000000b0: 6d8d c3be aaca 09c0 8b70 05c0 e2ca 2fc0
000000c0: c667 353f cf60 0f3e 9b45 8e3e afa2 843f
000000d0: 32de b53e fb53 663e d530 bb3d 5904 3f3e
000000e0: 1d00 e7bf d331 c9be 5c13 00c0 97e2 083f
000000f0: a7fb 3c3e ed78 d33e 1cb1 4d3f a0e5 93bd
00000100: 7d3c 0640 95fb 823f ea08 693f 0731 42bd
00000110: d657 d13e f30a 183f a49f 7b3e 0f95 0e3f
00000120: 3221 4940 2e39 4c3f 51d5 203f c133 553f
00000130: 3fd1 5d3f 5df1 773f 74e0 153f 5494 c63e
00000140: e279 d7bb 485d 24be cb68 6a3e b8f5 3bbd
00000150: c939 36bd 6a03 84be 6297 de3c c16b 033e
00000160: 0ad2 a3bf a017 abbf 79b6 32bf 3ce9 a0be
00000170: 8659 18bf a055 7b3d 41c0 3ebf 7d85 80bf
00000180: 3af9 643f 823c 6c3f 3140 ce3e 202b 2f3f
00000190: 965b 2e3f 4e79 043f e997 313f 5571 b63f
000001a0: b21e ce3f 51a9 6b3f 501b 6a3f 4c96 653f
000001b0: f8f3 9c3f bac6 a03f 0154 943f ce5a 4040
000001c0: 0522 84bc 31ba 513f a7d1 e83e a319 8b3e
000001d0: e898 0a3f 6daa 0cbf 7baf 973e fb62 bb3e
000001e0: c635 8d40 facf e03f 6fa4 0bbd f5bb 613f
000001f0: 2082 373f 7085 ee3e 05c2 cc3e d425 30bf
00000200: 2273 5fbe e200 16bf c5da 9cbe 54ac 1cbe
00000210: 9eef 06be 2341 da3d 56cb bfbe e4e6 edbe
00000220: 50b6 4040 203a 303f 1fc7 923f 224f 003e
00000230: fafd 2d3f 4151 a53e 988d a73f 79b2 763f
00000240: c81e 043f 642c 91be 59f2 debe f6a4 76bc
00000250: 36c5 a43d c5ea b63e 7d46 6fbe cd02 3b3e
00000260: 79a6 2a3f 2625 2abe 41f5 ac3f 82f9 2f3f
00000270: 210b e33e 9254 86bb 53dd 0fbf 147b 8cc0
00000280: 6df9 283f c909 873f 4fdf 1ebe 4e84 a83f
00000290: 7844 a13e e6a8 853d 8b2d 1ebe 51db 1f3f
000002a0: b5fe 0c40 44c3 b03f cbbc 533f ac19 0d3f
000002b0: 9df9 863f e791 433d 2d71 6fbf 1c88 0040
000002c0: 7727 0a3f f742 593e 9858 c53e 0300 923f
000002d0: 96a2 253f db2d 543f 0fea c93e 3b4d cf3f
000002e0: 07eb 70bf 3a97 953e dd23 3b3e 1b8d 043f
000002f0: a28a 173c 6e33 ca3e b698 a33d 2cc3 0ebf
00000300: 27bc 733f d0e6 a63d 41ca b43e 5d4b a4be
00000310: 907a 71be bb9d be3e 03db 1b3f 7cc8 ed3e
00000320: 8f26 a13f 89a7 943e f70e 0340 2df9 c63f
00000330: 558c f83e 5143 ab3f 8548 bb3f 2772 2740
00000340: 36c3 543f 80e6 433e 637c 153e ce00 cc3e
00000350: 4e8d 3f3d f9c4 933f 40a6 ca3e fbe9 7a3f
00000360: a1f6 3b3f 4d22 2b3e 051b 96be b693 8cbf
00000370: fec5 2c3e 2f6c d6be ff5d 293d 2691 e0bf
00000380: 416d 843e 6f39 bfbe afbb a2bd 1bd1 353e
00000390: abb4 93bf 4043 88bd 0b25 8abe 63ce 9d3f
000003a0: 9ba0 59bf 083e 04bc d4ad 32bf 757b f93f
000003b0: 2aa6 e53f d44a e83e 52ca cebe 2f3c 8b3f
000003c0: 3e19 d03d bfb4 a43d 0f49 85bf f45a 81bf
000003d0: 942c 103f 9105 b33e 0ac8 e4be 4b3b d73e
000003e0: 1180 7cbd 5562 553f 0fca a53f acec b03f
000003f0: ce76 2c3f c6d3 c2bf c257 8abe 1deb ae40

head.bias f4 [4]
0.46590737 1.9531852 1.6295909 0.8164985
00000000: 698b ee3e f901 fa3f 6f96 d03f 0c06 513f

exp_avg f4 [16, 3, 5, 5]
-0.14678873 -0.21561944 0.020930946 0.046527132 0.041111972 -0.049885064 -0.19081514 -0.0412144
-0.06413119 -0.00070592016 0.29817632 -0.5151682 -0.1940737 -0.044541128 -0.06757169 0.9553416
-0.6390599 -0.6493782 -0.27599198 -0.6722335 -0.45664218 0.35389307 0.18980114 -0.091600165
-0.13168275 -0.049015004 -0.07644607 0.005753817 0.017345466 0.016195506 -0.02143298 -0.064968064
-0.018761568 -0.023970889 -0.0011306033 0.11628524 -0.1809703 -0.07282428 -0.01698657 -0.027610136
0.35591424 -0.21771121 -0.22780862 -0.091564246 -0.24358705 -0.16684389 0.12147677 0.06597833
-0.02768714 -0.04325274 -0.03635917 -0.07624751 0.0044186823 0.022867836 0.02064632 -0.026835028
-0.053483304 -0.027119992 -0.023947569 0.005522657 0.11988306 -0.16754192 -0.06722849 -0.012139631
-0.02194855 0.36121374 -0.19878736 -0.20589218 -0.075122 -0.23516822 -0.17087598 0.12945968
0.07537933 -0.021454565 -0.03688203 -0.27234632 -0.07110771 0.08087934 -0.18798849 -0.119547784
-0.10584104 -0.1274612 -0.027520463 -0.15761532 -0.067250066 0.046984583 -0.014762074 -0.13067394
-0.24838457 0.07467984 0.25153145 0.0892688 -0.21664764 -0.35639903 0.021578997 0.26598758
0.3449915 0.02006038 -0.1404694 0.07482025 -0.09248693 -0.025025375 0.027958954 -0.06910318
-0.04374922 -0.033427536 -0.04462395 -0.010071737 -0.05718846 -0.02720797 0.018799633 -0.004785612
-0.04478376 -0.09038682 0.025667958 0.089311294 0.03289471 -0.08239772 -0.13080119 0.008550018
0.0976145 0.12627336 0.007464773 -0.048697695 0.02783414 -0.09285666 -0.029436508 0.021559346
-0.07221924 -0.046307415 -0.020264823 -0.039953277 -0.008122157 -0.058630932 -0.027406685 0.022858694
-0.0027373582 -0.04428846 -0.09132698 0.025305783 0.08838065 0.032356597 -0.086521335 -0.13592434
0.007970855 0.09531379 0.12631284 0.0049999356 -0.051887635 0.025092073 0.033575848 0.13155778
0.21143062 -0.028689113 -0.032809883 -0.041368596 0.36667103 -0.06871918 -0.31889135 -0.15827903
0.61436504 0.6725347 -0.051174007 -0.41410086 -0.22456858 0.93813 0.24725482 0.23064962
-0.9675071 -0.65261763 -0.20511311 -0.112641506 -0.0677249 -0.068858825 0.092212826 0.0103931045
0.04568403 0.076457396 -0.011007604 -0.013088398 -0.012556058 0.13398357 -0.022339495 -0.11177597
-0.045591824 0.22600128 0.2405509 -0.019972399 -0.15001653 -0.076320656 0.33903727 0.090219624
0.08224353 -0.35448503 -0.2394184 -0.07105251 -0.040249366 -0.018260546 -0.019561127 0.037122913
0.010268385 0.04746072 0.078217804 -0.0066338796 -0.0060074814 -0.0037563276 0.13973717 -0.013246646
-0.098867804 -0.013679493 0.23134711 0.24364918 -0.015762419 -0.14466636 -0.063528575 0.34656435
0.093978785 0.08422297 -0.3561806 -0.24185646 -0.068424866 -0.03829158 -0.01867919 -0.02000398
0.040611282 -0.12559578 -0.05297726 -0.32603827 -0.25014806 -0.19962838 -0.2967048 -0.466306
-0.4570536 -0.7539682 -0.5038367 -0.1642833 -0.54877865 -0.49028048 -0.70347327 -0.7352133
-0.43019223 -1.0959058 -0.42855957 -0.8336774 -1.4909983 0.010539055 -0.18319559 -0.061371304
-0.21575838 -0.41361183 -0.055294596 -0.024163604 -0.12199496 -0.09215646 -0.07665841 -0.114132345
00000000: c94f 16be 58cb 5cbe 6077 ab3c 3c93 3e3d
00000010: 0765 283d 4854 4cbd 0b65 43be 6ed0 28bd
00000020: 3757 83bd 800d 39ba 91aa 983e 10e2 03bf
00000030: 42bb 46be c270 36bd 0763 8abd 4491 743f
00000040: 6e99 23bf a63d 26bf d24e 8dbe 7f17 2cbf
00000050: 01cd e9be 7931 b53e 3b5b 423e de98 bbbd
00000060: d8d7 06be f5c3 48bd c28f 9cbd 848a bc3b
00000070: 1418 8e3c 70ac 843c 3894 afbc fa0d 85bd
00000080: dcb1 99bc 995e c4bc c030 94ba f526 ee3d
00000090: 4750 39be e524 95bd 6b27 8bbc a72e e2bc
000000a0: 643a b63e b0ef 5ebe aa46 69be 0986 bbbd
000000b0: e26e 79be 20d9 2abe d0c8 f83d a61f 873d
000000c0: 24d0 e2bc c929 31bd 5aed 14bd a827 9cbd
000000d0: 98ca 903b 5455 bb3c 7922 a93c 22d5 dbbc
000000e0: 4f11 5bbd bf2a debc b12d c4bc 68f7 b43b
000000f0: 4085 f53d 1c90 2bbe 17af 89bd 4ee5 46bc
00000100: 72cd b3bc 02f1 b83e ea8e 4bbe 66d5 52be
00000110: 90d9 99bd f0cf 70be 1dfa 2ebe 1491 043e
00000120: 7a60 9a3d 7cc1 afbc 9d11 17bd fa70 8bbe
00000130: eba0 91bd 11a4 a53d 0e80 40be 78d5 f4bd
00000140: 30c3 d8bd 3085 02be 9872 e1bc e965 21be
00000150: 67ba 89bd e872 403d a0dc 71bc 64cf 05be
00000160: 8658 7ebe bef1 983d bbc8 803e 90d2 b63d
00000170: e1d8 5dbe ef79 b6be 70c6 b03c 862f 883e
00000180: baa2 b03e ab55 a43c 36d7 0fbe 5c3b 993d
00000190: ca69 bdbd 0402 cdbc 2d0a e53c f885 8dbd
000001a0: 6232 33bd 50eb 08bd 9ac7 36bd ed03 25bc
000001b0: 723e 6abd 40e3 debc b001 9a3c a0d0 9cbb
000001c0: 2d6f 37bd ba1c b9bd 9c45 d23c d7e8 b63d
000001d0: 9abc 063d 23c0 a8bd bff0 05be 6015 0c3c
000001e0: 1cea c73d ce4d 013e 0e9b f43b 3c77 47bd
000001f0: 6c04 e43c a22b bebd d524 f1bc 3a9d b03c
00000200: aee7 93bd d8ac 3dbd 6a02 a6bc 0ca6 23bd
00000210: cc12 05bc fd26 70bd fc83 e0bc 2842 bb3c
00000220: 4065 33bb d167 35bd a409 bbbd 134e cf3c
00000230: ea00 b53d 5a88 043d 1932 b1bd c02f 0bbe
00000240: 3098 023c e033 c33d 2758 013e 80d6 a33b
00000250: 2188 54bd e48d cd3c d486 093d 15b7 063e
00000260: 4581 583e 6e05 ebbc a863 06bd 1e72 29bd
00000270: 4ebc bb3e a4bc 8cbd ba45 a3be e613 22be
00000280: 0747 1d3f 3c2b 2c3f d69b 51bd 0705 d4be
00000290: 4ef5 65be 4a29 703f 5e30 7d3e 6a2f 6c3e
000002a0: 8cae 77bf f311 27bf 2c09 52be 97b0 e6bd
000002b0: 5ab3 8abd db05 8dbd 14da bc3d d747 2a3c
000002c0: 2d1f 3b3d b295 9c3d 3d59 34bc b870 56bc
000002d0: edb7 4dbc fd32 093e 5101 b7bc cdea e4bd
000002e0: 7ebe 3abd e16c 673e fa52 763e 289d a3bc
000002f0: ef9d 19be 014e 9cbd 4b96 ad3e 11c5 b83d
00000300: 4c6f a83d 107f b5be 192a 75be fa83 91bd
00000310: 85dc 24bd 2497 95bc a83e a0bc 320e 183d
00000320: ba3c 283c 2c66 423d a830 a03d 0461 d9bb
00000330: 68da c4bb b82c 76bb 4317 0f3e 7608 59bc
00000340: 347b cabd f41f 60bc 42e6 6c3e 2c7f 793e
00000350: 3020 81bc 6b23 14be 451b 82bd e270 b13e
00000360: f377 c03d 187d ac3d 4e5d b6be 38a9 77be
00000370: 5622 8cbd a2d7 1cbd 1a05 99bc 63df a3bc
00000380: 0458 263d 2e9c 00be affe 58bd 7dee a6be
00000390: 6813 80be 626b 4cbe b1e9 97be a9bf eebe
000003a0: ee02 eabe 0f04 41bf 71fb 00bf e239 28be
000003b0: c27c 0cbf 0b06 fbbe d316 34bf f036 3cbf
000003c0: 2842 dcbe a446 8cbf 296c dbbe e26b 55bf
000003d0: 08d9 bebf 00ac 2c3c a097 3bbe 7a60 7bbd
000003e0: c4ef 5cbe eec4 d3be 967c 62bd c0f2 c5bc
000003f0: 7ed8 f9bd 87bc bcbd 16ff 9cbd 38be e9bd

exp_avg_sq f4 [16, 3, 5, 5]
1.2224041 1.3089832 1.3022912 1.3014584 1.2527902 2.4475138 3.22795 2.8934736
2.7390094 2.0518675 4.4823775 4.517248 3.7236705 3.8679576 4.8193436 16.07407
17.490103 13.636467 11.982864 15.585349 9.297363 6.965289 6.683421 5.946247
4.85903 0.16039243 0.17176582 0.1710146 0.17141907 0.16439545 0.32107356 0.4219146
0.38001224 0.35992247 0.27035198 0.59106266 0.5963103 0.49229598 0.51072586 0.6344768
2.0917308 2.2793894 1.7755855 1.5611312 2.0317585 1.224308 0.9164076 0.8817425
0.7874621 0.63789135 0.16245177 0.17359523 0.17273772 0.17396165 0.16727154 0.32916775
0.42817718 0.39006284 0.37069982 0.2825873 0.59131193 0.5974762 0.49214947 0.51239794
0.63659745 2.0993915 2.283344 1.7769154 1.5635582 2.035478 1.230076 0.9208406
0.8854751 0.78844625 0.63779247 0.49560222 0.41739705 0.41867015 0.49897718 0.42638075
0.7539486 0.96156937 1.0695606 1.0096154 0.81837887 2.2680452 1.795434 1.8075187
2.2415454 1.7975466 8.014767 6.418097 6.603802 7.3766294 6.2820983 1.3586346
1.2866912 0.6510088 0.6136455 1.2440052 0.06530081 0.055425964 0.055603325 0.06568515
0.057366997 0.10007612 0.12649393 0.14039826 0.13222328 0.107862845 0.29953882 0.23677827
0.23831633 0.29568905 0.23736483 1.0488243 0.83723617 0.8603583 0.96262455 0.8187311
0.17871922 0.16822249 0.0848964 0.08012977 0.1629943 0.066634886 0.057096187 0.05705442
0.06681335 0.057673324 0.108472764 0.13092649 0.14431621 0.13475484 0.11040398 0.30298942
0.23768125 0.239166 0.296242 0.23787785 1.0639107 0.84302366 0.864658 0.9669126
0.8213459 0.1777128 0.16812176 0.08513458 0.08027797 0.16376379 0.73614764 0.8449383
0.5354598 0.6025509 0.72205687 2.727516 0.9340263 1.0289749 1.1400522 0.9419316
3.8810458 3.4417894 3.5146384 3.4732478 3.575183 12.203274 11.512403 11.874391
11.009479 13.190463 1.9518334 2.3685184 2.544131 1.4674573 2.856749 0.09680141
0.110038966 0.0701447 0.07902346 0.09394667 0.35601756 0.124058306 0.13614485 0.15143354
0.1259832 0.5090089 0.45338875 0.4625453 0.45756236 0.47319874 1.5915103 1.5002128
1.5471561 1.4354552 1.7173347 0.2528802 0.30805993 0.33046722 0.19073637 0.37261143
0.09922218 0.11225463 0.07247149 0.08123733 0.09578117 0.3707328 0.13863832 0.15144226
0.16752638 0.14841731 0.5107398 0.45426726 0.46437162 0.46085358 0.47694722 1.5918049
1.5002118 1.5507543 1.4376887 1.7199072 0.25312343 0.30893627 0.33168638 0.19138752
0.3737376 0.85121477 0.80749524 0.7331744 0.83707064 0.7218697 1.7470244 1.8458104
1.8836042 1.8119615 1.7704836 3.781136 3.8225853 4.0536475 3.436825 3.7693372
13.650909 13.043492 13.804006 11.013556 13.113803 2.820162 1.7823166 1.9120157
3.3426647 2.4219954 0.11335898 0.10705617 0.098423794 0.11250938 0.09795911 0.23050696
00000000: bd77 9c3f c38c a73f 7ab1 a63f 3096 a63f
00000010: 6e5b a03f 11a4 1c40 bc96 4e40 ac2e 3940
00000020: ee4b 2f40 cc51 0340 a36f 8f40 4c8d 9040
00000030: 9e50 6e40 9e8c 7740 1038 9a40 b297 8041
00000040: bbeb 8b41 f82e 5a41 d0b9 3f41 975d 7941
00000050: 00c2 1441 a6e3 de40 96de d540 a847 be40
00000060: 2c7d 9b40 ea3d 243e 61e3 2f3e 741e 2f3e
00000070: 7b88 2f3e 4857 283e c163 a43e 3105 d83e
00000080: f790 c23e c247 b83e 936b 8a3e e24f 173f
00000090: cba7 183f 380e fc3e eebe 023f 126d 223f
000000a0: ebde 0540 84e1 1140 6346 e33f 26d3 c73f
000000b0: 5508 0240 20b6 9c3f b099 6a3f e0b9 613f
000000c0: 1e97 493f d94c 233f c259 263e f3c2 313e
000000d0: 28e2 303e 0123 323e 3b49 2b3e ad88 a83e
000000e0: 0a3a db3e 51b6 c73e 5ecc bd3e 48af 903e
000000f0: 3860 173f 33f4 183f 04fb fb3e 832c 033f
00000100: 0df8 223f 6e5c 0640 4f22 1240 f771 e33f
00000110: ad22 c83f 4645 0240 2173 9d3f 36bc 6b3f
00000120: 7fae 623f 9dd7 493f 5e46 233f 93bf fd3e
00000130: 11b5 d53e ef5b d63e f079 ff3e 944e da3e
00000140: c702 413f 6929 763f 5de7 883f 143b 813f
00000150: 4781 513f a727 1140 c8d0 e53f c65c e73f
00000160: 7b75 0f40 0216 e63f 7c3c 0041 0d61 cd40
00000170: 5952 d340 590d ec40 f306 c940 bde7 ad3f
00000180: 4cb2 a43f 83a8 263f df17 1d3f 903b 9f3f
00000190: 6ebc 853d 5606 633d 50c0 633d f085 863d
000001a0: a8f9 6a3d b5f4 cc3d a087 013e 90c4 0f3e
000001b0: 8a65 073e 32e7 dc3d 275d 993e 0176 723e
000001c0: 3209 743e 8e64 973e c40f 733e e03f 863f
000001d0: 1c55 563f 7140 5c3f 906e 763f 5d98 513f
000001e0: 2c02 373e 8442 2c3e 2ade ad3d 141b a43d
000001f0: fae7 263e df77 883d b1dd 693d e5b1 693d
00000200: 70d5 883d dd3a 6c3d f826 de3d 9811 063e
00000210: a1c7 133e 2cfd 093e 7b1b e23d 6e21 9b3e
00000220: b762 733e efe7 743e 08ad 973e 4096 733e
00000230: 3a2e 883f 66d0 573f 3a5a 5d3f 9687 773f
00000240: ba43 523f 58fa 353e 1c28 2c3e 0a5b ae3d
00000250: c768 a43d b2b1 273e 2c74 3c3f e04d 583f
00000260: e513 093f c740 1a3f b8d8 383f 9f8f 2e40
00000270: 591c 6f3f 73b5 833f 3bed 913f 6e22 713f
00000280: 0e63 7840 4746 5c40 d6ef 6040 b149 5e40
00000290: cccf 6440 9c40 4341 cd32 3841 81fd 3d41
000002a0: d326 3041 230c 5341 add5 f93f ce95 1740
000002b0: 0bd3 2240 a4d5 bb3f fad4 3640 d13f c63d
000002c0: 1c5c e13d 06a8 8f3d 0dd7 a13d 1d67 c03d
000002d0: ef47 b63e 4812 fe3d 8e69 0b3e 6511 1b3e
000002e0: bd01 013e 684e 023f 9222 e83e bdd2 ec3e
000002f0: 9d45 ea3e 1b47 f23e 9cb6 cb3f f906 c03f
00000300: 3609 c63f ffbc b73f a0d1 db3f 8379 813e
00000310: 08ba 9d3e 0033 a93e 6550 433e edc6 be3e
00000320: 0035 cb3d c1e5 e53d ef6b 943d c25f a63d
00000330: eb28 c43d b1d0 bd3e 34f7 0d3e ae13 1b3e
00000340: 098c 2b3e b5fa 173e d8bf 023f b895 e83e
00000350: 1ec2 ed3e 00f5 eb3e 6d32 f43e 43c0 cb3f
00000360: f106 c03f 1e7f c63f 2f06 b83f eb25 dc3f
00000370: 6599 813e e52c 9e3e ccd2 a93e 17fb 433e
00000380: 895a bf3e 36e9 593f 02b8 4e3f 51b1 3b3f
00000390: 434a 563f 74cc 383f 7f9e df3f 8443 ec3f
000003a0: f119 f13f 5bee e73f 359f e23f 22fe 7140
000003b0: 3da5 7440 7bb7 8140 f1f4 5b40 d23c 7140
000003c0: 206a 5a41 25b2 5041 35dd 5c41 8637 3041
000003d0: 23d2 5141 897d 3440 f322 e43f eebc f43f
000003e0: 38ee 5540 f901 1b40 c128 e83d 4440 db3d
000003f0: 6a92 c93d 516b e63d c99e c83d 040a 6c3e

exp_avg f4 [16]
-0.00027068166 -0.000828091 0.0046067 -0.0028418705 -0.0012983022 -0.0011212593 0.00061045546 9.423111e-06
1.5722095e-05 0.0013842469 -0.0027281153 0.00043533678 0.0014341511 0.000105090745 -0.00035508728 0.00024882605
00000000: 47ea 8db9 3f14 59ba cdf3 963b ad3e 3abb
00000010: cb2b aaba 38f7 92ba f906 203a f417 1e37
00000020: f1e2 8337 9e6f b53a 2eca 32bb ea3d e439
00000030: 20fa bb3a 2a64 dc38 022b bab9 de74 8239

exp_avg_sq f4 [16]
0.0001831177 1.6980295e-05 0.0003446201 0.00017073103 1.0866709e-05 6.680902e-05 2.5614037e-05 9.413933e-07
1.5843027e-06 8.9528796e-05 0.00033511673 0.00046039594 0.00014649963 4.0990967e-06 0.00011115192 8.128465e-05
00000000: 4903 4039 e870 8e37 20ae b439 4306 3339
00000010: 2950 3637 d21b 8c38 badd d637 0eb4 7c35
00000020: 3aa4 d435 68c1 bb38 9bb2 af39 4c61 f139
00000030: b29d 1939 f98a 8936 3c1a e938 5d77 aa38

exp_avg f4 [16]
0.49793696 0.96646047 -1.1208045 -2.9377708 0.08949666 -0.3444637 0.16670825 -0.5068269
0.44291085 0.6570399 0.9786719 1.2829462 0.19680113 1.2203666 -0.02390182 -1.3272386
00000000: 98f1 fe3e f469 773f 8676 8fbf 7004 3cc0
00000010: 064a b73d 8c5d b0be 91b5 2a3e 68bf 01bf
00000020: 36c5 e23e c433 283f 3e8a 7a3f 9537 a43f
00000030: 3c86 493e f934 9c3f c0cd c3bc f4e2 a9bf

exp_avg_sq f4 [16]
19.794764 46.8996 69.79746 29.767687 10.204852 12.228116 28.377457 24.358883
20.049393 10.515991 38.581886 25.45072 59.46541 29.584402 16.827213 17.803926
00000000: ad5b 9e41 3199 3b42 4d98 8b42 3924 ee41
00000010: 1347 2341 5da6 4341 0805 e341 fede c241
00000020: 2865 a041 8041 2841 da53 1a42 139b cb41
00000030: 94dc 6d42 dbac ec41 229e 8641 716e 8e41

exp_avg f4 [16]
0.35908562 0.27713263 -0.156019 0.1191695 -0.079551116 0.51797485 -0.309812 0.08454409
0.03578055 -0.10208377 -0.34064215 0.21135193 -0.32301414 0.8526393 -0.72917676 0.30804524
00000000: 12da b73e 54e4 8d3e 72c3 1fbe 240f f43d
00000010: b2eb a2bd 009a 043f ae9f 9ebe 7425 ad3d
00000020: a08e 123d 4c11 d1bd a668 aebe a46c 583e
00000030: 1c62 a5be 9246 5a3f 54ab 3abf 1bb8 9d3e

exp_avg_sq f4 [16]
7.444971 13.2051 9.685599 3.2173011 22.002522 8.302257 18.206022 1.6870129
2.1490586 3.7074745 6.659933 6.385539 7.65715 5.551317 5.645435 6.9558125
00000000: 343d ee40 1748 5341 37f8 1a41 43e8 4d40
00000010: 2a05 b041 0bd6 0441 efa5 9141 0af0 d73f
00000020: 2d8a 0940 4347 6d40 2c1e d540 5656 cc40
00000030: 5f07 f540 64a4 b140 67a7 b440 0496 de40
