code/models/checkpoint.pt (torch, 517452 bytes, 48 tensors)

conv1.weight f4 [16, 3, 5, 5]
0.44865873 -1.6279186 -0.21200943 0.8356803 -0.26104087 -0.3239103 0.028510123 0.62340355
0.7617202 0.59209114 -0.4466 -0.42046773 -0.5056237 -1.4177359 1.6659532 0.9983762
0.9827718 0.39525247 0.22759473 -1.8426456 1.3122487 -1.1691006 -0.6119896 -0.2636887
-0.5987637 0.18474667 -1.2321504 0.29388532 0.36893985 0.19508028 0.1001004 0.223837
0.583696 1.0078455 0.30114737 -0.22256014 -0.34398705 -0.34831074 -0.617058 1.8937503
0.649662 1.1088518 0.34370637 0.39056844 -1.459853 0.77069575 -1.0827482 -0.15832649
0.03065066 -0.070172794 0.009526201 -0.8615281 -0.06325996 0.11388103 0.1259976 0.2418855
0.2075598 0.06338574 0.87200934 -0.8497315 -0.3573171 -0.37339884 -0.65950656 -0.16568114
2.0121129 0.5692865 1.03073 0.44485775 0.46810347 -1.0329885 0.5354649 -1.0730354
-0.13393317 -0.18370143 -0.3460957 -0.14396788 0.94310343 1.0006522 1.6527445 0.35221353
-0.48736683 -0.80703264 -0.9074996 -0.076007426 1.1526878 -2.0010867 -1.0319408 -1.2412989
-0.7212 0.29297307 0.43338573 -0.689732 0.94520086 -0.47245008 -0.16292718 1.8157668
1.3707236 -0.34372815 -1.2836674 0.33537886 -0.075955145 0.8335988 0.87531406 1.6570619
0.41351926 0.012840085 -0.04240173 -0.34340984 -0.18757485 0.61311555 -1.4240757 -0.4673024
-0.9798238 0.10021384 0.05297927 0.5365478 -0.7317917 1.4431025 -0.5225303 -0.27004087
1.5676765 1.2194989 -0.1564379 -1.1274698 0.401935 0.05981697 1.5776927 2.1698837
2.0891676 0.11259703 0.4750622 0.67036307 -0.13956836 -0.5174318 -0.08639951 -0.6845102
-0.63137907 -1.6012888 0.12776719 -0.4352545 0.19480516 -0.8372891 1.7333 0.087091394
-0.065214135 1.5705259 1.3508258 0.16447249 -0.8676458 0.63062423 -0.608764 0.8378175
0.9896375 0.31201774 1.207964 1.3665931 -1.4223166 -0.8523823 -0.6174752 0.4256645
-0.70569193 -1.2211748 -1.1695993 0.254799 0.3143729 0.50567 1.0369426 -1.0752853
1.3382119 -0.6175774 0.3617087 1.9784201 0.9612101 -0.67018735 -0.7598008 -1.3412685
0.24454284 0.68976927 0.07869114 1.1161636 1.3671311 -0.5620368 -0.06149129 -0.2581917
0.3784784 -0.6773888 -0.80203736 -0.6230799 0.34637025 0.6106952 0.2567663 0.6465147
-1.4181994 1.1106144 -0.837192 0.124781154 1.7902112 0.55831414 -0.5716961 -0.84276557
-1.2247453 -0.40791324 0.29522815 0.49776635 1.4519392 1.0208367 -0.022280656 0.6088876
-0.0287236 -0.29186383 -0.80521685 -1.0688864 -0.78371555 0.078660265 -0.05214124 0.15986688
0.2324736 -1.0903897 0.950874 -1.0042052 -0.24250701 1.3047646 1.091353 -0.42983046
-0.8330152 0.3961881 1.3885298 0.57062227 0.39259967 1.0043249 -0.8059659 -0.2934516
-0.55154777 -1.3192701 0.28426245 -0.7217761 -0.9604827 -1.059398 -1.0163895 -0.14446339
0.54269636 1.8349935 -0.91787803 0.79217327 2.0261228 0.0038731254 -0.106690966 -0.316046
1.7608941 0.32891452 0.507779 1.038886 0.19020179 0.6334261 0.6155185 -0.064575195
00000000: 99b6 e53e a35f d0bf 0019 59be 25ef 553f
00000010: 26a7 85be 92d7 a5be 108e e93c 6097 1f3f
00000020: 1800 433f 4993 173f c1a8 e4be 8c47 d7be
00000030: 8e70 01bf 5f78 b5bf f43d d53f 9595 7f3f
00000040: ef96 7b3f 885e ca3e 980e 693e d0db ebbf
00000050: c4f7 a73f 17a5 95bf 5aab 1cbf 3502 87be
00000060: 9448 19bf 3b2e 3d3e 1bb7 9dbf 2378 963e
00000070: afe5 bc3e 20c3 473e 7001 cd3d 8735 653e
00000080: 1a6d 153f 1501 813f fd2f 9a3e cee6 63be
00000090: 121f b0be c955 b2be 83f7 1dbf 6966 f23f
000000a0: 4050 263f dbee 8d3f 48fa af3e 96f8 c73e
000000b0: 77dc babf 514c 453f 7e97 8abf 5720 22be
000000c0: 1817 fb3c c1b6 8fbd c813 1c3c 1b8d 5cbf
000000d0: 708e 81bd 753a e93d 8405 013e d5b0 773e
000000e0: 8e8a 543e 62d0 813d 013c 5f3f 0188 59bf
000000f0: 44f2 b6be 222e bfbe 6cd5 28bf 51a8 29be
00000100: 75c6 0040 c3bc 113f f6ee 833f 65c4 e33e
00000110: 42ab ef3e f838 84bf 3a14 093f 3959 89bf
00000120: c725 09be 3a1c 3cbe 7533 b1be 516c 13be
00000130: 3a6f 713f 5f15 803f 228d d33f 5555 b43e
00000140: 2588 f9be b199 4ebf e551 68bf c8a9 9bbd
00000150: 468b 933f ce11 00c0 a316 84bf e2e2 9ebf
00000160: 90a0 38bf 9100 963e bce4 dd3e 4792 30bf
00000170: aff8 713f fae4 f1be 62d6 26be 0c6b e83f
00000180: df73 af3f 23fd afbe 374f a4bf c7b6 ab3e
00000190: 5f8e 9bbd bb66 553f 9514 603f 9b1a d43f
000001a0: ccb8 d33e 385f 523c 70ad 2dbd 6ad3 afbe
000001b0: 9f13 40be 24f5 1c3f 1d48 b6bf 4342 efbe
000001c0: bcd5 7abf ea3c cd3d cb00 593d 325b 093f
000001d0: b356 3bbf 95b7 b83f 8cc4 05bf cc42 8abe
000001e0: a0a9 c83f 8a18 9c3f 4231 20be ee50 90bf
000001f0: 6dca cd3e a402 753d d6f1 c93f 60df 0a40
00000200: ecb4 0540 4699 e63d 5a3b f33e ea9c 2b3f
00000210: 02eb 0ebe 6976 04bf 3af2 b0bd 0f3c 2fbf
00000220: 0fa2 21bf 08f7 ccbf 67d5 023e aed9 debe
00000230: 017b 473e 9458 56bf c6dc dd3f f95c b23d
00000240: fd8e 85bd fe06 c93f dce7 ac3f 7a6b 283e
00000250: 091e 5ebf 9770 213f f5d7 1bbf 357b 563f
00000260: e258 7d3f cac0 9f3e 909e 9a3f 86ec ae3f
00000270: 780e b6bf ba35 5abf db12 1ebf b3f0 d93e
00000280: 3aa8 34bf 754f 9cbf 6eb5 95bf 0475 823e
00000290: 7cf5 a03e 9773 013f 89ba 843f f3a2 89bf
000002a0: 874a ab3f 8d19 1ebf e231 b93e df3c fd3f
000002b0: dd11 763f 6691 2bbf 4e82 42bf b0ae abbf
000002c0: 7069 7a3e b894 303f d228 a13d 73de 8e3f
000002d0: 27fe ae3f a5e1 0fbf 4ade 7bbd b431 84be
000002e0: ecc7 c13e 5a69 2dbf 5252 4dbf 2a82 1fbf
000002f0: 7157 b13e 8556 1c3f df76 833e fd81 253f
00000300: 8f87 b5bf 9d28 8e3f 3752 56bf 438d ff3d
00000310: a425 e53f aded 0e3f ad5a 12bf 7cbf 57bf
00000320: 74c4 9cbf 01da d0be 2528 973e 3bdb fe3e
00000330: 25d9 b93f c7aa 823f ec85 b6bc 0fe0 1b3f
00000340: c14d ebbc 2d6f 95be b122 4ebf 45d1 88bf
00000350: 95a1 48bf a218 a13d 0e92 55bd 25b4 233e
00000360: 8f0d 6e3e e491 8bbf 7a6c 733f cc89 80bf
00000370: c253 78be 8702 a73f 75b1 8b3f bd12 dcbe
00000380: 7c40 55bf 2bd9 ca3e 58bb b13f 4d14 123f
00000390: d302 c93e b88d 803f c853 4ebf 4a3f 96be
000003a0: 3c32 0dbf d8dd a8bf d98a 913e 52c6 38bf
000003b0: 32e2 75bf 5b9a 87bf 0d19 82bf 36ee 13be
000003c0: 26ee 0a3f 11e1 ea3f 0efa 6abf decb 4a3f
000003d0: ffab 0140 43d4 7d3b cb80 dabd c8d0 a1be
000003e0: fa64 e13f 7c67 a83e cefd 013f 37fa 843f
000003f0: 42c4 423e 3628 223f 9f92 1d3f 0040 84bd

conv1.bias f4 [16]
0.7015552 0.36832866 -0.92020404 0.08155314 0.22449993 -0.8937911 0.7753274 -0.70218784
1.1780427 1.3515797 -0.44920808 0.6513113 -0.59249055 0.29728377 -0.73515654 0.62196857
00000000: 1f99 333f 9395 bc3e 7e92 6bbf 5505 a73d
00000010: 4fe3 653e 7ecf 64bf db7b 463f 95c2 33bf
00000020: 1aca 963f 9000 ad3f 9afe e5be 56bc 263f
00000030: 76ad 17bf 9435 983e 3833 3cbf 5539 1f3f

bn1.weight f4 [16]
1.461353 1.170533 1.4448376 1.344675 1.4275088 1.2952853 0.98008925 1.1782337
1.2284707 1.3126131 1.1000181 1.3364611 1.4836175 1.0894339 1.380602 1.4713722
00000000: 9d0d bb3f 06d4 953f 70f0 b83f 4f1e ac3f
00000010: 9cb8 b63f e9cb a53f 21e7 7a3f 5dd0 963f
00000020: 873e 9d3f b503 a83f 65cd 8c3f 2811 ab3f
00000030: 2ee7 bd3f 9272 8b3f 91b7 b03f ed55 bc3f

bn1.bias f4 [16]
-0.0013489823 1.6551244 1.3661729 1.3672711 0.05235093 2.2278214 2.7606275 2.2222462
2.0192122 1.3413292 1.8255676 2.235732 1.2833453 1.8056723 1.0937554 1.7747622
00000000: 56d0 b0ba 1edb d33f c1de ae3f bd02 af3f
00000010: ee6d 563d a094 0e40 1fae 3040 4839 0e40
00000020: c63a 0140 adb0 ab3f 33ac e93f 3c16 0f40
00000030: a944 a43f 4520 e73f 2d00 8c3f 682b e33f

bn1.running_mean f4 [16]
0.69997466 0.36729845 -0.91908425 0.081775725 0.22204877 -0.89427316 0.7744724 -0.7006528
1.1768266 1.3526486 -0.44861978 0.6509879 -0.59407383 0.29783684 -0.73340386 0.62168044
00000000: 8a31 333f 8b0e bc3e 1b49 6bbf 087a a73d
00000010: c160 633e 16ef 64bf d343 463f fb5d 33bf
00000020: 41a2 963f 9723 ad3f 7eb1 e5be 25a7 263f
00000030: 3915 18bf 127e 983e 5bc0 3bbf 7326 1f3f

bn1.running_var f4 [16]
0.004126243 0.004631264 0.003763087 0.004885996 0.0037873432 0.0051749717 0.008844882 0.006145852
0.004636621 0.0070230826 0.007255652 0.0047391364 0.0054433877 0.005274183 0.003736282 0.004788392
00000000: 6f35 873b dcc1 973b 209e 763b b51a a03b
00000010: 1335 783b cf92 a93b 20ea 103c 2563 c93b
00000020: ccee 973b e321 e63b d2c0 ed3b c24a 9b3b
00000030: 725e b23b 0ed3 ac3b 69dc 743b f2e7 9c3b

conv2.weight f4 [32, 16, 5, 5]
-0.17354937 0.9475509 0.76949644 0.41398007 -0.8671908 0.45218453 -0.59813124 -0.6611713
0.11770568 -0.9374736 0.07716025 -0.25551015 -1.2446772 0.33309007 -1.878469 -0.20155123
0.15441765 -0.2520353 -0.89956695 0.7357902 0.5187579 0.27969998 -0.59024954 -1.4431508
-0.32000402 -1.1828924 -1.0735295 0.62296903 0.24765779 0.31955644 0.22420993 -0.23358923
-1.8923584 -2.4244864 -2.0346432 0.2379711 -0.5562635 -1.3886172 -0.14596587 -0.60312027
-1.5608644 0.7133518 -1.1569378 -1.0791303 0.0025767288 0.26963803 1.1500106 0.6530113
0.8791866 0.46280953 0.32326964 0.050905112 0.19271114 -1.4896244 0.34711418 -0.36419785
0.016877297 0.9579201 -0.86635715 -2.5317724 -1.8775471 -0.004255347 -0.94470465 0.76638055
-1.457537 -0.29965875 -0.62208396 -0.7235609 -0.361821 -0.8946455 1.3236562 -0.6804031
-1.4420406 -1.5824691 -0.35672507 -2.0093663 -0.30805165 -0.6794682 -0.8352555 -2.5048242
0.6184076 -0.7554098 -0.7005626 -0.30072895 -0.3518117 -0.5892654 -1.5750985 -0.22692531
-0.47799447 -0.65245396 -0.83803934 -1.7548804 -1.6414196 -1.587769 -0.35561576 0.411576
-0.6768826 -0.5213224 1.624205 -0.085787684 1.403131 -1.809583 -0.031876657 0.41723964
-2.0527356 0.3975174 -0.1225267 -1.8082565 0.81485665 0.45174024 -1.0918338 -1.5462931
1.4172205 -0.6597712 0.5099432 1.3144356 -0.7426361 -0.83466536 -0.36173075 -2.396082
-2.2558818 -0.5244155 -0.5650619 -1.4119192 1.0842245 0.59973055 -2.7214665 -0.74362093
-0.5356082 0.693987 -0.14793524 -1.6884161 0.085348494 -0.559589 0.23254965 0.4075542
-0.4884491 0.74744165 -0.1459903 -0.8765263 -0.65531385 -0.63282275 -1.3922056 0.5268737
-0.41080406 -0.751171 0.590191 -0.88091004 -0.10793737 -1.2319263 -0.8574036 -0.6580627
0.24283208 0.058304712 0.076424815 1.1218758 1.3913271 0.060617913 -0.16429804 -2.3949757
-1.4186052 -0.037880663 1.246651 -0.19726625 -2.7399487 0.9329796 -0.87349087 -2.3232675
0.5165431 0.33456308 -0.8494424 0.7339297 -0.5264413 -0.08265371 -1.8915608 -2.2405457
0.860523 -1.8343874 1.2401038 0.45309713 1.144987 0.8602913 -1.7544004 -0.94038266
-0.61459386 -1.0842501 0.15744914 0.9483128 0.71637493 -1.1721746 -0.99360603 -1.3577272
-0.25972497 1.3828067 -1.0162514 -0.76364017 0.043770235 0.053051833 -0.21426071 -0.42084652
0.26789168 -2.6865146 -0.6495722 0.8194235 -0.14433518 -0.52128506 -1.7501469 -1.9877616
-0.45093295 -0.4310409 -0.6621938 0.08739872 1.4885901 -0.8202911 0.19277056 0.41906476
0.11827091 0.44943962 -0.016941557 -0.47439387 -1.6819645 0.04706824 -0.74303144 -0.48708367
-0.6306661 -0.71514446 -1.4532574 0.4853045 -0.7669706 -0.52150327 -0.9780555 -0.59679925
0.33432236 -1.2762557 -1.3744974 -0.9357844 -1.2012429 0.2777924 -0.34429467 0.38241884
1.5998057 0.5455091 -1.0862302 0.15104963 1.3598652 -1.5131714 -0.68457615 0.86593115
0.38930288 -0.14425394 0.47108054 0.5284324 0.1450489 -0.45333162 0.7014207 -1.2486674
00000000: edb6 31be b292 723f b8fd 443f 32f5 d33e
00000010: 3700 5ebf bb84 e73e 211f 19bf 8642 29bf
00000020: ad0f f13d 45fe 6fbf 3106 9e3d 3ad2 82be
00000030: 9551 9fbf c88a aa3e ac71 f0bf 7263 4ebe
00000040: a91f 1e3e c50a 81be 054a 66bf bf5c 3c3f
00000050: 51cd 043f d634 8f3e 981a 17bf 2ab9 b8bf
00000060: 91d7 a3be 0569 97bf 6a69 89bf e67a 1f3f
00000070: 019a 7d3e e79c a33e 4a97 653e 0432 6fbe
00000080: cd38 f2bf c92a 1bc0 9837 02c0 b2ae 733e
00000090: 4967 0ebf 35be b1bf 1478 15be 1766 1abf
000000a0: 68ca c7bf 399e 363f 8a16 94bf f120 8abf
000000b0: 56de 283b ff0d 8a3e 8c33 933f c02b 273f
000000c0: 5f12 613f 5ff5 ec3e 9983 a53e e181 503d
000000d0: 1256 453e 03ac bebf f3b8 b13e 2478 babe
000000e0: 4242 8a3c 403a 753f 95c9 5dbf 8f08 22c0
000000f0: 7753 f0bf 7070 8bbb 2ad8 71bf 8431 443f
00000100: 9390 babf df6c 99be e540 1fbf 4a3b 39bf
00000110: 9a40 b9be 7d07 65bf 916d a93f e62e 2ebf
00000120: c994 b8bf 598e cabf aba4 b6be 7599 00c0
00000130: f2b8 9dbe a1f1 2dbf 4ed3 55bf 0a4f 20c0
00000140: f64f 1e3f 8962 41bf 1258 33bf 25f9 99be
00000150: aa20 b4be 19da 16bf d49c c9bf 1c5f 68be
00000160: b1bb f4be 3907 27bf bf89 56bf ec9f e0bf
00000170: 0a1a d2bf 043c cbbf 4513 b6be 17ba d23e
00000180: 2e48 2dbf 6375 05bf f3e5 cf3f 74b1 afbd
00000190: cc99 b33f 6aa0 e7bf 1991 02bd 6fa0 d53e
000001a0: 0560 03c0 6787 cb3e 47ef fabd f374 e7bf
000001b0: 729a 503f 7f4a e73e 36c1 8bbf efec c5bf
000001c0: 7b67 b53f c4e6 28bf a38b 023f 6d3f a83f
000001d0: 661d 3ebf a1ac 55bf c634 b9be 6859 19c0
000001e0: 5e60 10c0 1840 06bf e6a7 10bf c5b9 b4bf
000001f0: dec7 8a3f f187 193f 822c 2ec0 f15d 3ebf
00000200: 9e1d 09bf 22a9 313f 567c 17be 051e d8bf
00000210: 31cb ae3d 3a41 0fbf 7f21 6e3e f2aa d03e
00000220: 0016 fabe 5658 3f3f 7b7e 15be 0764 60bf
00000230: a6c2 27bf ac00 22bf cb33 b2bf 32e1 063f
00000240: e954 d2be be4c 40bf c216 173f 5283 61bf
00000250: 450e ddbd c3af 9dbf cd7e 5bbf cc76 28bf
00000260: f9a8 783e ecd0 6e3d 9d84 9c3d a099 8f3f
00000270: 0217 b23f 7d4a 783d bf3d 28be 4847 19c0
00000280: db94 b5bf c128 1bbd 4392 9f3f 2a00 4abe
00000290: 525b 2fc0 c0d7 6e3f 199d 5fbf 6ab0 14c0
000002a0: 2b3c 043f da4b ab3e 0f75 59bf d1e2 3b3f
000002b0: dbc4 06bf 5946 a9bd aa1e f2bf 1a65 0fc0
000002c0: 3c4b 5c3f 35cd eabf b9bb 9e3f 59fc e73e
000002d0: ef8e 923f 0d3c 5c3f 3190 e0bf ebbc 70bf
000002e0: 0656 1dbf b5c8 8abf 593a 213e a1c4 723f
000002f0: 5964 373f d109 96bf f75c 7ebf 01ca adbf
00000300: acfa 84be cfff b03f 8714 82bf ec7d 43bf
00000310: 6b48 333d e14c 593d 2967 5bbe 3279 d7be
00000320: 1929 893e dbef 2bc0 5d4a 26bf bdc5 513f
00000330: 9acc 13be f072 05bf d004 e0bf f96e febf
00000340: afe0 e6be 65b1 dcbe 8885 29bf 1afe b23d
00000350: 1f8a be3f 99fe 51bf a565 453e a88f d63e
00000360: 0538 f23d f31c e63e 05c9 8abc c1e3 f2be
00000370: 9d4a d7bf a0ca 403d 4f37 3ebf 0863 f9be
00000380: 5573 21bf b513 37bf 5704 babf d579 f83e
00000390: 2f58 44bf 3d81 05bf d861 7abf d6c7 18bf
000003a0: 4d2c ab3e 595c a3bf 88ef afbf 918f 6fbf
000003b0: 54c2 99bf ce3a 8e3e 6447 b0be 67cc c33e
000003c0: 6fc6 cc3f 7ca6 0b3f 9709 8bbf c1ac 1a3e
000003d0: 1010 ae3f 9aaf c1bf 6240 2fbf aaad 5d3f
000003e0: b552 c73e 4eb7 13be 7831 f13e 5947 073f
000003f0: b387 143e 151b e8be 4f90 333f 55d4 9fbf

conv2.bias f4 [32]
-0.6257142 0.5392541 -0.70694983 -0.118051715 -0.09902331 0.41645753 0.4217065 -1.0100557
-0.26451993 0.8658064 -0.9800722 -0.17710444 0.45892403 0.027223773 0.85597384 0.74868554
-0.5220836 -0.19163921 -0.23388581 0.2260648 0.813817 -0.19649355 0.20997582 -0.50652885
0.37501505 -0.058561496 0.5352846 -0.1653354 -0.53121024 -0.41928855 -0.37986115 -0.3628514
00000000: ce2e 20bf 8f0c 0a3f aafa 34bf 19c5 f1bd
00000010: bccc cabd ec39 d53e eae9 d73e 8149 81bf
00000020: 286f 87be 7da5 5d3f 03e6 7abf de5a 35be
00000030: 17f8 ea3e 6404 df3c 1a21 5b3f dba9 3f3f
00000040: 45a7 05bf 123d 44be c37f 6fbe 887d 673e
00000050: 5056 503f 9b35 49be e703 573e e0ab 01bf
00000060: f901 c03e 2ede 6fbd 6908 093f af4d 29be
00000070: 65fd 07bf fdac d6be 297d c2be a9c7 b9be

bn2.weight f4 [32]
2.9206698 1.3274504 1.9154196 2.408224 2.557665 2.0206075 2.8362556 2.0903778
1.5019279 2.3128219 2.3622594 3.0337577 0.9809134 0.45130673 3.1440966 2.7944844
2.6725345 3.0470672 2.0498652 2.5290625 1.5626473 0.5059673 1.6879231 2.27068
2.66828 1.57862 1.9439601 2.2426722 3.097468 1.9222891 2.323888 2.5077913
00000000: 41ec 3a40 e5e9 a93f 782c f53f 5820 1a40
00000010: c9b0 2340 a251 0140 3685 3540 c0c8 0540
00000020: 2c3f c03f 4605 1440 422f 1740 1629 4240
00000030: 241d 7b3f ad11 e73e e138 4940 d5d8 3240
00000040: ce0a 2b40 2603 4340 fe30 0340 29dc 2140
00000050: d404 c83f 1387 013f dd0d d83f d252 1140
00000060: 19c5 2a40 3810 ca3f afd3 f83f f187 0f40
00000070: ea3c 4640 920d f63f 95ba 1440 a77f 2040

bn2.bias f4 [32]
-0.22973545 0.36316353 -0.12225715 0.5655681 0.009267784 -0.061208233 -0.11656775 0.1610395
-0.12823634 0.2033379 -0.04390307 -0.44322383 -0.14091854 0.0040959124 0.3318057 -0.5859456
0.054473862 -0.6330061 0.28554073 -0.115267605 0.6366715 -0.8875769 0.23918642 0.16229084
-0.35194954 0.2586946 0.41733155 -0.1483388 0.1744092 1.6889203 -0.0075707133 0.05353254
00000000: c53f 6bbe 92f0 b93e f561 fabd 12c9 103f
00000010: e7d7 173c 7cb5 7abd 13bb eebd 8ae7 243e
00000020: 6350 03be cf37 503e b5d3 33bd 3cee e2be
00000030: f34c 10be 0137 863b 70e2 a93e 8800 16bf
00000040: fc1f 5f3d b00c 22bf 6532 923e 6c11 ecbd
00000050: e7fc 223f 3d38 63bf 49ed 743e 922f 263e
00000060: bb32 b4be 9e73 843e 7bac d53e 20e6 17be
00000070: 5398 323e 8a2e d83f bf13 f8bb f044 5b3d

bn2.running_mean f4 [32]
-229.68877 -199.27744 -175.98288 -199.86026 -219.76038 -247.2746 -178.38144 -187.99893
-174.8861 -196.10869 -192.1645 -231.92377 -161.562 55.771015 -248.00276 -241.73827
-218.89328 -233.83276 -187.5851 -210.03314 -218.08078 119.92003 -196.9286 -200.86804
-216.88089 -177.79726 -202.70068 -214.62189 -219.0194 -248.17807 -198.46075 -178.013
00000000: 53b0 65c3 0647 47c3 9efb 2fc3 3adc 47c3
00000010: a8c2 5bc3 4c46 77c3 a661 32c3 baff 3bc3
00000020: d7e2 2ec3 d31b 44c3 1d2a 40c3 7cec 67c3
00000030: df8f 21c3 8515 5f42 b500 78c3 ffbc 71c3
00000040: aee4 5ac3 30d5 69c3 c995 3bc3 7c08 52c3
00000050: ae14 5ac3 0ed7 ef42 b9ed 44c3 38de 48c3
00000060: 82e1 58c3 19cc 31c3 60b3 4ac3 349f 56c3
00000070: f704 5bc3 962d 78c3 f475 46c3 5403 32c3

bn2.running_var f4 [32]
644.24255 579.73645 660.05054 848.3227 615.781 476.54575 516.9479 554.40344
586.0928 533.3784 478.24377 646.2924 289.0041 331.612 1143.8268 595.8532
688.5641 661.46375 508.70905 591.99945 678.2999 244.2901 386.62878 882.5457
698.4388 487.2424 686.0984 628.21124 649.76465 666.9468 652.22 635.6119
00000000: 860f 2144 22ef 1044 3c03 2544 a714 5444
00000010: fcf1 1944 db45 ee43 aa3c 0144 d299 0a44
00000020: f085 1244 3858 0544 341f ef43 b792 2144
00000030: 8680 9043 56ce a543 75fa 8e44 9bf6 1444
00000040: 1a24 2c44 ae5d 2544 c25a fe43 f7ff 1344
00000050: 3293 2944 444a 7443 7c50 c143 eda2 5c44
00000060: 159c 2e44 079f f343 4c86 2b44 850d 1d44
00000070: f070 2244 98bc 2644 140e 2344 29e7 1e44

conv3.weight f4 [32, 32, 5, 5]
0.6208743 0.8235447 -0.64200526 0.6808371 -0.40060744 1.350243 0.21003686 0.12555547
-0.19606254 1.000719 1.0111345 0.66775364 -1.0007741 0.38362634 0.7790523 0.5311762
-1.3983909 0.25876054 0.03895396 -1.5856605 0.8589109 0.97435665 -0.14499198 -1.6437066
-1.4559721 0.23611751 1.1011642 0.9999229 0.58116096 0.8886467 -1.2956423 0.70235467
-0.19474371 1.0771866 0.10969809 0.11930301 -0.04521227 1.0234464 0.6177002 0.8059614
0.35118088 0.35186696 0.27502826 -0.4566623 -0.64364827 -0.38667166 -0.8775868 0.61664957
0.12942708 -1.889708 -0.2568852 -2.2209888 1.2934772 -1.061815 -2.4052048 0.43253845
0.15924017 0.0739701 -2.192605 -1.6179087 -0.50503373 -0.80339444 0.6540447 -0.41088912
0.771081 -0.8181943 0.96334296 0.13939595 -0.7630993 -1.4343249 -0.076690316 -0.81431925
-0.31118587 -0.63514006 0.54520756 -0.29775095 -0.5874547 -0.84036094 1.524062 0.5606283
-1.3714482 -0.9314827 1.1668818 -0.96315074 0.7639087 0.20997638 -1.0387276 -0.3609502
-0.725438 -0.61648524 -0.6115561 1.0632865 0.9516385 -0.1316101 -0.7280265 -2.6561425
0.14286901 0.26878256 0.6365625 2.5514355 0.51722145 0.22042176 0.8167809 0.31356108
-0.36000815 -1.9119159 0.014531037 1.1586386 -0.44941625 0.4770163 -0.25643855 -0.43211445
0.85236853 0.8478414 0.874052 -0.04868847 0.27609164 -0.7451722 0.93253946 -1.506697
-1.9735392 -1.8554436 0.08600945 1.3948028 1.3076733 -0.31566766 -0.5787899 0.63385016
0.46432605 -0.41839668 0.38514644 -0.13520709 1.4484925 0.55602247 -0.8446532 -0.19083014
-0.024699118 2.2333395 1.1396068 -1.5701962 -0.23185906 0.018707426 -1.3465345 1.0753605
0.32330063 1.4827682 1.3134309 0.20016186 -1.5551575 -1.7609905 0.5116257 -0.19590057
1.0110741 -0.7717701 -0.10282724 -0.9709109 -0.18407357 -1.0733165 0.16485588 1.92381
0.21473971 0.83795786 -1.2742664 0.43918395 -0.17236288 -0.38596076 0.7768454 1.1605043
0.2502121 -0.5633111 1.5437346 -1.1630145 -0.84501696 0.5413544 0.5049669 0.7722013
-0.21346292 -0.61930245 1.2591097 -0.09462286 -0.043396685 0.10430177 -0.5023064 0.12306326
0.9557068 -0.21039672 -0.36743972 -0.16985102 0.81907123 0.43787268 0.23137672 1.0435083
-0.40483668 -1.0036839 1.7027487 -0.75622964 0.47025958 0.0100455275 -0.6371781 0.2955735
1.0541167 0.72395885 -1.8654968 0.415681 -0.6447881 0.11313125 0.104427226 0.1869413
-0.5740494 -0.7905711 0.12615785 -0.10684425 -1.2241259 0.77797955 0.15472801 0.62320143
-0.46125656 -1.4405078 0.58000135 1.1395624 1.3820108 0.064907975 -1.0350894 -1.7541032
-0.37745464 0.9503294 -0.61313266 -0.7634856 0.74507976 1.6572797 -0.30850652 -0.9978874
-0.34600213 -0.61413735 -0.13783759 -0.39114466 -0.4751032 -0.40610477 0.42875051 0.8494328
0.76388776 0.091303445 0.12565836 0.089252904 -0.8630622 -0.93411726 -1.4435341 0.275872
-0.3972947 0.18148911 0.232628 0.07792173 0.8250248 -0.28579658 -1.7182398 1.1388575
00000000: 9ef1 1e3f d3d3 523f 755a 24bf 574b 2e3f
00000010: 6b1c cdbe c3d4 ac3f e713 573e 9d91 003e
00000020: 9ec4 48be 8f17 803f db6c 813f e7f1 2a3f
00000030: 5e19 80bf ac6a c43e f96f 473f 2afb 073f
00000040: 79fe b2bf 437c 843e 308e 1f3d ecf6 cabf
00000050: 96e1 5b3f 706f 793f c778 14be fa64 d2bf
00000060: 4b5d babf cac8 713e f3f2 8c3f f2fa 7f3f
00000070: f7c6 143f 5a7e 633f 9bd7 a5bf 84cd 333f
00000080: e56a 47be 40e1 893f 64a9 e03d 2355 f43d
00000090: 8030 39bd 4b00 833f 9a21 1e3f 7c53 4e3f
000000a0: fbcd b33e e827 b43e 81d0 8c3e a4cf e9be
000000b0: 22c6 24bf d4f9 c5be 87a9 60bf bfdc 1d3f
000000c0: 8888 043e f4e1 f1bf 7586 83be ae24 0ec0
000000d0: a990 a53f 8ee9 87bf e0ee 19c0 ae75 dd3e
000000e0: db0f 233e a37d 973d a453 0cc0 a217 cfbf
000000f0: e449 01bf 42ab 4dbf 796f 273f 0f60 d2be
00000100: 9065 453f 2f75 51bf a59d 763f d0bd 0e3e
00000110: 7a5a 43bf f597 b7bf d00f 9dbd 3a77 50bf
00000120: c153 9fbe 8a98 22bf b992 0b3f d072 98be
00000130: 6e63 16bf e521 57bf 7714 c33f 5685 0f3f
00000140: 9d8b afbf a675 6ebf 625c 953f 0c91 76bf
00000150: 858f 433f 0c04 573e 07f5 84bf 77ce b8be
00000160: 4eb6 39bf fad1 1dbf f18e 1cbf c619 883f
00000170: 959e 733f ccc4 06be f25f 3abf 3dfe 29c0
00000180: 414c 123e de9d 893e c3f5 223f b84a 2340
00000190: a068 043f 3eb6 613e 8e18 513f 148b a03e
000001a0: fd52 b8be a9b9 f4bf 9613 6e3c 454e 943f
000001b0: e319 e6be 7b3b f43e ea4b 83be 1b3e ddbe
000001c0: d334 5a3f 220c 593f dfc1 5f3f 906d 47bd
000001d0: e25b 8d3e 9bc3 3ebf e8ba 6e3f 73db c0bf
000001e0: ef9c fcbf 2d7f edbf b925 b03d e688 b23f
000001f0: d761 a73f 319f a1be 932b 14bf 0144 223f
00000200: 25bc ed3e 1738 d6be ea31 c53e ba73 0abe
00000210: 3468 b93f 7d57 0e3f 313b 58bf fa68 43be
00000220: ce55 cabc 09ef 0e40 a3de 913f 30fc c8bf
00000230: 766c 6dbe 5140 993c 3e5b acbf 6aa5 893f
00000240: a987 a53e 59cb bd3f 811e a83f 3bf7 4c3e
00000250: 670f c7bf 2368 e1bf e7f9 023f 299a 48be
00000260: e06a 813f ba92 45bf 1797 d2bd 9e8d 78bf
00000270: c87d 3cbe 6f62 89bf fbcf 283e 683f f63f
00000280: bae4 5b3e 6884 563f 291b a3bf b8dc e03e
00000290: e57f 30be a69c c5be 57df 463f 688b 943f
000002a0: cd1b 803e 2835 10bf 1899 c53f a9dd 94bf
000002b0: 0853 58bf 3496 0a3f 8345 013f fcae 453f
000002c0: 0696 5abe 9b8a 1ebf 822a a13f a1c9 c1bd
000002d0: b9c0 31bd 2b9c d53d 2797 00bf 9708 fc3d
000002e0: 33a9 743f 3d72 57be 0f21 bcbe 6ded 2dbe
000002f0: a7ae 513f d930 e03e 05ee 6c3e ae91 853f
00000300: c146 cfbe b778 80bf abf3 d93f 4498 41bf
00000310: ddc5 f03e ff95 243c 1b1e 23bf 6955 973e
00000320: 4ced 863f 5e55 393f 99c8 eebf 24d4 d43e
00000330: d510 25bf 5bb1 e73d f1dd d53d 8a6d 3f3e
00000340: e7f4 12bf de62 4abf 862f 013e 28d1 dabd
00000350: 28b0 9cbf ab29 473f 0571 1e3e 218a 1f3f
00000360: d229 ecbe 8f62 b8bf f87a 143f 2edd 913f
00000370: bbe5 b03f 79ee 843d cf7d 84bf 7486 e0bf
00000380: bc41 c1be ca48 733f 43f6 1cbf cb73 43bf
00000390: 8cbd 3e3f be21 d43f 91f4 9dbe 8c75 7fbf
000003a0: 3127 b1be 1b38 1dbf 4c25 0dbe 1d44 c8be
000003b0: ba40 f3be f7ec cfbe 3085 db3e 6e74 593f
000003c0: 268e 433f 4dfd ba3d 96ac 003e 3aca b63d
000003d0: a5f1 5cbf 4f22 6fbf bac5 b8bf 183f 8d3e
000003e0: 366a cbbe 48d8 393e 0936 6e3e 6e95 9f3d
000003f0: d334 533f ee53 92be 48ef dbbf 15c6 913f

conv3.bias f4 [32]
0.08314526 -0.010744709 0.5323661 0.39633077 0.24872929 -0.06649146 0.22296917 0.50774795
0.19005664 0.25125122 -0.50379735 0.22816794 -0.71012586 -0.28337887 -0.25717247 -0.84334314
-0.19241972 -0.74513054 -0.05598458 -0.8366185 -0.7623478 0.7797478 0.5984604 -0.63231546
-0.7670246 0.7361698 0.71234953 0.48714942 -0.15155669 0.28054 -0.5264673 -0.03784185
00000000: 1048 aa3d 930a 30bc 2549 083f deeb ca3e
00000010: e4b2 7e3e ad2c 88bd 0852 643e c5fb 013f
00000020: 359e 423e 00a4 803e ddf8 00bf dba4 693e
00000030: cfca 35bf 0917 91be 1cac 83be 56e5 57bf
00000040: ad09 45be e0c0 3ebf 1650 65bd a12c 56bf
00000050: 3a29 43bf 8d9d 473f b334 193f 6ddf 21bf
00000060: b95b 44bf a075 3c3f 8a5c 363f a66b f93e
00000070: ad31 1bbe f0a2 8f3e 90c6 06bf 0e00 1bbd

bn3.weight f4 [32]
6.965955 4.0255866 3.6294658 3.7829132 4.5870075 5.1295714 4.3093076 5.714671
5.452132 5.493486 4.525121 4.706447 5.214774 5.095193 4.7111135 4.8337936
4.573487 5.212955 5.34167 5.5900025 5.0995545 4.7847657 4.6303425 4.7612953
4.914083 5.300787 4.598325 4.691157 4.7839184 5.58905 4.814348 5.760534
00000000: 1ae9 de40 9bd1 8040 2b49 6840 401b 7240
00000010: c4c8 9240 7325 a440 d9e5 8940 96de b640
00000020: de77 ae40 a3ca af40 cbcd 9040 379b 9640
00000030: 6edf a640 d20b a340 71c1 9640 70ae 9a40
00000040: 015a 9240 87d0 a640 f6ee aa40 4de1 b240
00000050: 8d2f a340 cd1c 9940 c42b 9440 885c 9840
00000060: 2b40 9d40 0ca0 a940 7a25 9340 f51d 9640
00000070: dc15 9940 7fd9 b240 240f 9a40 4b56 b840

bn3.bias f4 [32]
-0.46601596 -1.2272629 -2.6092386 1.4042108 -1.122085 -1.4581925 -2.8106995 -1.4841045
-0.8160452 -2.266528 -0.1361465 -0.7187299 -1.1493294 -1.4749285 -1.0904855 -0.9101949
0.0621408 -1.0121466 -2.115217 -0.21297523 0.88829905 -0.78822154 -0.6572914 -0.97716737
-0.5138295 -0.3744764 -2.0952191 -0.9854478 0.13961457 -0.93336475 -1.169047 -1.7534546
00000000: a599 eebe f316 9dbf c4fd 26c0 2ebd b33f
00000010: 7ba0 8fbf 0da6 babf 80e2 33c0 23f7 bdbf
00000020: 57e8 50bf cb0e 11c0 fd69 0bbe affe 37bf
00000030: 3a1d 93bf 75ca bcbf 0795 8bbf 8802 69bf
00000040: 5a87 7e3d 058e 81bf b75f 07c0 2e16 5abe
00000050: 9167 633f e3c8 49bf 4044 28bf a427 7abf
00000060: 558a 03bf 5fbb bfbe 1218 06c0 4f46 7cbf
00000070: 1ff7 0e3e fef0 6ebf 55a3 95bf 3371 e0bf

bn3.running_mean f4 [32]
0.6984206 -15.807892 -26.381823 -20.121838 -20.97053 -22.311127 -11.561936 -14.960393
-15.485619 -14.024252 -33.01525 -19.944742 -34.086063 -18.837988 -18.838678 -14.388777
-40.82981 -13.198387 -16.383818 -4.0583925 22.450796 -10.553813 -12.030637 -18.329195
-8.905506 -28.119486 -11.287047 -14.110977 -22.673689 -22.409554 -29.208143 -29.573563
00000000: b1cb 323f 20ed 7cc1 f90d d3c1 86f9 a0c1
00000010: a5c3 a7c1 307d b2c1 b1fd 38c1 c55d 6fc1
00000020: 18c5 77c1 5663 60c1 9e0f 04c2 d58e 9fc1
00000030: 2158 08c2 33b4 96c1 9db5 96c1 6e38 66c1
00000040: ba51 23c2 982c 53c1 0f12 83c1 5ade 81c0
00000050: 3b9b b341 6bdc 28c1 7d7d 40c1 31a2 92c1
00000060: f47c 0ec1 b5f4 e0c1 bf97 34c1 90c6 61c1
00000070: b763 b5c1 c446 b3c1 47aa e9c1 a896 ecc1

bn3.running_var f4 [32]
135.04094 44.696037 59.407597 80.56504 58.573196 87.735886 44.401493 55.56056
77.69448 120.0577 45.812084 91.64662 97.741486 75.24976 58.757282 72.71583
69.78802 53.62271 127.46314 84.80751 102.54032 102.101906 96.157486 53.299107
47.292393 78.11273 53.276363 70.985306 43.421333 68.47299 102.99621 78.07184
00000000: 7b0a 0743 bec8 3242 61a1 6d42 4d21 a142
00000010: f44a 6a42 c678 af42 219b 3142 033e 5e42
00000020: 9363 9b42 8b1d f042 933f 3742 124b b742
00000030: a47b c342 e17f 9642 7507 6b42 816e 9142
00000040: 7793 8b42 a87d 5642 21ed fe42 729d a942
00000050: a514 cd42 2d34 cc42 a250 c042 4932 5542
00000060: 692b 3d42 b839 9c42 ff1a 5542 7af8 8d42
00000070: 72af 2d42 2cf2 8842 0ffe cd42 c824 9c42

head.weight f4 [4, 512]
2.87611 0.8602168 0.35555243 -0.19511414 0.48644122 0.086282745 0.64626175 0.15485296
2.5139773 2.0277615 3.361172 3.455545 3.1378756 2.7767081 1.8744626 -1.146104
-2.0228488 -0.97151965 1.3913672 -0.2728271 0.9994008 0.6150979 -2.147953 -3.144396
3.0299835 -1.3746158 2.8348937 0.97498184 -0.40805307 2.0326943 0.8927895 3.634584
0.43185356 -1.7284006 0.07404153 -1.1232605 -0.52205986 -0.3539831 0.46923122 -0.81813025
0.26519182 -2.954719 -1.8596859 -2.0210533 -2.188784 -1.179648 -1.1580544 -2.7621052
1.4956867 0.62269753 0.4300351 0.52560085 0.8734352 0.9561989 0.4861913 1.0522063
2.7304554 0.7527005 0.83517396 0.6595217 1.7706406 2.5764043 2.1281965 3.9714806
2.3065083 2.0363941 0.4139346 0.8934971 -0.890226 1.9810879 0.12659992 -0.38448736
-3.9175878 -0.5578546 -1.0874776 2.3472831 1.7829893 1.4237852 1.537537 4.6294312
1.4830334 -1.334998 0.3504732 1.2794238 -0.98898757 -0.3852277 -0.07584317 2.5864785
2.8839118 0.041672047 0.38467366 0.88405204 3.1627917 -0.79900354 -3.323867 3.5340087
0.259693 -2.9647067 -0.5715926 1.9784596 -2.3472188 0.19371974 -0.6929065 -1.5953145
-1.158877 -0.061149836 -1.6069537 1.2422061 -1.6530706 -4.3969913 -0.85487366 -2.7931209
-3.4022102 1.6618301 -0.13095397 -0.21393697 -1.4905822 0.4263367 -1.4168005 2.1213682
0.49976698 0.1859144 1.8877305 -0.96308213 0.7542406 0.72652227 2.0662816 -2.2079327
-0.3970161 1.2754272 0.18281893 -0.68947315 2.0966482 0.32093894 1.1997691 -0.25444055
-1.8873029 0.86195946 0.7608399 1.2892327 3.2717268 3.5763366 0.6992857 1.8969678
-2.747274 1.304918 1.6365393 0.53496724 0.26665533 -1.281206 1.6123025 2.3993464
-2.7781966 -2.2285104 -1.9781685 -2.3139963 -2.2021587 0.94224215 -1.8756306 -3.987638
1.1551889 0.21427578 -0.9405771 -0.45362413 0.23915096 0.8948783 -0.3902836 0.7411745
3.2906337 0.40659612 0.5759053 0.5648627 0.5545792 -0.013867552 0.7831772 5.4541154
-1.5127435 0.31126922 0.6352842 0.63972497 -0.16197027 -1.1808461 2.2393312 0.008759627
-0.97076434 0.08616251 1.6454103 1.4194335 1.8761644 2.833969 3.2784493 4.0826383
3.0108593 2.1710358 0.10431859 -1.1963404 0.30772957 -1.4181594 1.3620404 -2.3325255
-0.69176537 1.2013323 3.1758747 3.42426 0.44183564 0.0069153192 1.5339614 -1.3504479
1.1407655 0.31113088 1.4105223 1.0036507 -0.767087 1.1291714 -1.9830453 -0.12763394
-4.582574 3.7515428 2.0728183 1.712624 -0.5708991 0.6640048 -0.07490223 -2.2389064
-1.1321492 -0.18610202 -0.3425933 -0.660042 0.49520895 -0.004564977 0.36146405 -1.2429928
3.885572 -1.1303277 1.0301646 -1.7018098 0.58048624 1.9102461 -2.4557645 2.7189784
1.6837223 -0.24564302 1.3961743 0.5207575 1.8218368 1.1163064 -0.15239248 1.8788277
-3.250323 1.1728462 1.2930307 -0.117107876 -0.9183546 2.187729 0.4915492 3.8031383
00000000: 3012 3840 2b37 5c3f f80a b63e 00cc 47be
00000010: d30e f93e 02b5 b03d 6971 253f c691 1e3e
00000020: 01e5 2040 d8c6 0140 711d 5740 a627 5d40
00000030: f4d2 4840 96b5 3140 64ee ef3f 89b3 92bf
00000040: 5b76 01c0 83b5 78bf 5218 b23f feaf 8bbe
00000050: bbd8 7f3f 0e77 1d3f 1078 09c0 c93d 49c0
00000060: 40eb 4140 69f3 afbf e66e 3540 6998 793f
00000070: 55ec d0be aa17 0240 da8d 643f 069d 6840
00000080: e91b dd3e 3b3c ddbf 16a3 973d 00c7 8fbf
00000090: b7a5 05bf 463d b5be 133f f03e fc70 51bf
000000a0: 39c7 873e 1e1a 3dc0 300a eebf f058 01c0
000000b0: 0915 0cc0 b5fe 96bf 203b 94bf 55c6 30c0
000000c0: a972 bf3f 1b69 1f3f 902d dc3e c78d 063f
000000d0: 7399 5f3f 73c9 743f 11ee f83e b2ae 863f
000000e0: c8bf 2e40 fbb0 403f f6cd 553f 6ad6 283f
000000f0: 5aa4 e23f cfe3 2440 5f34 0840 bd2c 7e40
00000100: d59d 1340 4854 0240 3cef d33e 3abc 643f
00000110: dae5 63bf 4a94 fd3f 69a3 013e 87db c4be
00000120: c2b9 7ac0 8fcf 0ebf 7732 8bbf e339 1640
00000130: fe38 e43f 983e b63f 03ce c43f 4d24 9440
00000140: 0ad4 bd3f 37e1 aabf 3971 b33e 29c4 a33f
00000150: 4a2e 7dbf 913c c5be aa53 9bbd dd88 2540
00000160: 0392 3840 4fb0 2a3d f2f3 c43e 3c51 623f
00000170: 2e6b 4a40 7f8b 4cbf 3dba 54c0 332d 6240
00000180: 7bf6 843e c1bd 3dc0 e553 12bf 2a3e fd3f
00000190: d538 16c0 785e 463e 5262 31bf 4433 ccbf
000001a0: 1556 94bf 4078 7abd a9b0 cdbf 9c00 9f3f
000001b0: d197 d3bf 27b4 8cc0 00d9 5abf 7ec2 32c0
000001c0: d0bd 59c0 d9b6 d43f cc18 06be 4b12 5bbe
000001d0: 66cb bebf ce48 da3e b859 b5bf 7fc4 0740
000001e0: 75e1 ff3e 5860 3e3e 27a1 f13f 8d8c 76bf
000001f0: e915 413f 5dfd 393f f53d 0440 c54e 0dc0
00000200: b245 cbbe 3341 a33f e334 3b3e 5081 30bf
00000210: 7c2f 0640 1c52 a43e 0992 993f 0846 82be
00000220: 2493 f1bf 60a9 5c3f 67c6 423f 9405 a53f
00000230: f963 5140 b3e2 6440 6304 333f d7cf f23f
00000240: 56d3 2fc0 8e07 a73f 1f7a d13f 9df3 083f
00000250: 0c87 883e 8ffe a3bf ee5f ce3f e48e 1940
00000260: f9cd 31c0 ea9f 0ec0 a034 fdbf 8418 14c0
00000270: 2bf0 0cc0 c836 713f aa14 f0bf 7635 7fc0
00000280: 3bdd 933f 1c6b 5b3e a9c9 70bf 6c41 e8be
00000290: fde3 743e bf16 653f 41d3 c7be 9dbd 3d3f
000002a0: be99 5240 5e2d d03e 886e 133f d89a 103f
000002b0: e7f8 0d3f bb34 63bc 4d7e 483f 1d88 ae40
000002c0: 94a1 c1bf ae5e 9f3e fca1 223f 04c5 233f
000002d0: 89db 25be f725 97bf 3451 0f40 8a84 0f3c
000002e0: 0384 78bf f875 b03d ce9c d23f ffaf b53f
000002f0: 2826 f03f c05f 3540 1dd2 5140 f9a4 8240
00000300: ebb1 4040 40f2 0a40 fca4 d53d af21 99bf
00000310: bb8e 9d3e 3f86 b5bf 5757 ae3f 1948 15c0
00000320: 8917 31bf 42c5 993f 8841 4b40 1327 5b40
00000330: 4838 e23e e799 e23b d958 c43f 7adb acbf
00000340: 9b04 923f 8c4c 9f3e ff8b b43f a077 803f
00000350: d05f 44bf b088 903f 6ed4 fdbf 79b2 02be
00000360: 72a4 92c0 4719 7040 0ea9 0440 4337 db3f
00000370: 7226 12bf 38fc 293f 5766 99bd 3e4a 0fc0
00000380: 44ea 90bf 8791 3ebe 6468 afbe 83f8 28bf
00000390: 078c fd3e cd95 95bb d111 b93e 631a 9fbf
000003a0: 36ad 7840 94ae 90bf 6fdc 833f e7d4 d9bf
000003b0: bf9a 143f f282 f43f 3f2b 1dc0 be03 2e40
000003c0: 3684 d73f d889 7bbe d7b5 b23f 5d50 053f
000003d0: f331 e93f 21e3 8e3f c60c 1cbe 6d7d f03f
000003e0: 4b05 50c0 d31f 963f 0882 a53f 41d6 efbd
000003f0: 4919 6bbf c003 0c40 56ac fb3e 9e66 7340

head.bias f4 [4]
1.7988887 1.8136185 1.2026843 2.5772533
00000000: fc41 e63f a724 e83f 8ff1 993f b8f1 2440

exp_avg f4 [16, 3, 5, 5]
1.0082126 0.06072855 0.15076587 -2.3796418 1.2969842 3.0118704 -0.41389465 -1.2342174
1.7339376 -2.2491379 -10.870171 1.5246778 -1.1419716 -5.189908 -12.640542 0.96090704
-9.557758 1.8819566 -7.3887935 -24.062511 0.14029932 3.4768522 -0.82253003 8.861835
17.445585 0.5463582 0.18908274 -0.0071653724 -1.0402541 0.1480371 0.7526587 -0.529017
-0.3784097 0.5179478 -0.92682475 -3.8167124 0.5279524 -0.53725696 -2.0584698 -4.6532726
0.38484398 -3.2385662 0.6028043 -2.5428545 -8.431557 -0.010870218 1.3867611 -0.009132981
3.2205944 6.5115614 -0.077500224 -0.16664863 0.029730782 -0.908797 0.3878969 -0.87357664
-1.8166146 -0.0895772 0.43352985 -1.0276575 -4.024353 -0.14227778 -0.659933 -2.0863187
-4.598858 0.70900923 -2.946755 0.42833328 -2.5044835 -8.317424 -0.05807495 1.5349996
0.001973033 3.2160137 6.61753 2.4134321 -0.7074795 -3.9659119 4.246319 -0.32636127
-0.46842408 1.5693759 0.3517729 2.451587 6.2343564 -4.9151473 8.499195 13.258595
-0.53513885 3.2681289 -6.4364643 21.765461 19.7587 -5.5840664 3.9070024 -11.214562
5.916553 -9.740534 -11.475713 -3.3974729 0.92753565 -0.2424652 -1.4282044 1.5875044
-0.08386162 -0.061656326 0.49948907 0.12761377 0.8690108 2.2864923 -1.7380679 3.0721903
4.773795 -0.4056861 1.2424642 -2.2214253 7.9279823 7.212974 -2.169559 1.2517607
-3.965103 2.1275134 -3.471514 -4.11968 -1.5070629 0.9047188 -0.28112918 -1.4615277
1.5980937 -0.1153474 0.2568915 0.3267013 0.092654064 0.8371161 2.3041253 -1.8417199
2.9292328 4.6852455 -0.45954022 1.2079253 -2.1815124 8.045693 7.1187315 -2.1535344
1.0767524 -3.9317663 2.2170584 -3.4096854 -4.0727983 -1.6193281 -1.9487408 6.277368
2.201984 -6.459368 1.7923315 1.0484314 3.725764 -1.587216 -2.3668938 -3.7811017
-5.8193197 3.9492958 3.8986924 -0.5521774 -4.9071774 -12.343674 2.3703976 5.3157353
-1.164891 -7.3769994 -6.3006263 -0.17101872 10.759658 18.198606 -9.786173 -0.91996175
1.9934931 0.7095393 -2.229252 0.5366864 0.28849572 1.3500397 -0.72617173 -0.9208385
-1.4783094 -2.1891174 1.2183645 1.3048383 -0.26230752 -1.8341683 -4.390081 0.8064654
1.8226931 -0.42443657 -2.5793571 -2.0542216 -0.22062546 3.9141374 6.2333965 -3.7016692
-0.9273907 2.0349855 0.576149 -2.2895718 0.5504185 0.44505578 1.6320848 -1.3054742
-1.1788201 -1.5277648 -2.1464221 1.4482083 1.2226074 -0.339415 -1.8017191 -4.7234964
0.6818588 1.8037121 -0.48172873 -2.5315788 -2.0111265 -0.26397985 3.847808 6.1740856
-3.6925552 -1.0411679 3.5597506 3.4104462 -4.7929306 -1.6005983 -0.10707092 1.4877672
3.992002 -3.3260016 -0.16480537 -22.480152 0.77291095 -8.782508 -9.174646 -11.998323
-24.708466 0.107420444 -10.921315 -7.9534655 -6.083158 -3.0830302 -14.209386 4.0496454
-9.991455 -22.466578 -0.46410796 1.3108757 1.249691 -1.8183317 -0.6300777 0.0068299472
00000000: 1c0d 813f 80be 783d 5e62 1a3e 0d4c 18c0
00000010: 9403 a63f 7cc2 4040 00ea d3be d6fa 9dbf
00000020: abf1 dd3f e0f1 0fc0 38ec 2dc1 a428 c33f
00000030: 202c 92bf ba13 a6c0 a93f 4ac1 01fe 753f
00000040: 94ec 18c1 f4e3 f03f ff70 ecc0 0680 c0c1
00000050: a0aa 0f3e bf84 5e40 5491 52bf 13ca 0d41
00000060: 8f90 8b41 22de 0b3f e89e 413e 80cb eabb
00000070: 0c27 85bf 0a97 173e 3eae 403f a86d 07bf
00000080: ebbe c1be 3a98 043f 6344 6dbf 0445 74c0
00000090: e327 073f ac89 09bf f8bd 03c0 9ce7 94c0
000000a0: 450a c53e ab44 4fc0 6251 1a3f 21be 22c0
000000b0: a8e7 06c1 0019 32bc 6381 b13f 80a2 15bc
000000c0: 381e 4e40 b65e d040 70b8 9ebd f0a5 2abe
000000d0: f88d f33c eca6 68bf 6c9a c63e b8a2 5fbf
000000e0: d486 e8bf 4074 b7bd a0f7 dd3e 488a 83bf
000000f0: 80c7 80c0 44b1 11be 5ef1 28bf 3f86 05c0
00000100: d829 93c0 a181 353f a297 3cc0 804e db3e
00000110: 7549 20c0 2b14 05c1 00e0 6dbd de7a c43f
00000120: 004e 013b 2bd3 4d40 cec2 d340 ac75 1a40
00000130: 601d 35bf 80d1 7dc0 d8e1 8740 d318 a7be
00000140: 48d5 efbe 4fe1 c83f 941b b43e cde6 1c40
00000150: d97f c740 e348 9dc0 b4fc 0741 3523 5441
00000160: dcfe 08bf 0629 5140 84f7 cdc0 aa1f ae41
00000170: d111 9e41 acb0 b2c0 540c 7a40 d96e 33c1
00000180: 6754 bd40 3ad9 1bc1 859c 37c1 3270 59c0
00000190: fa72 6d3f cc48 78be 67cf b6bf 5833 cb3f
000001a0: a4bf abbd 588b 7cbd 08bd ff3e 2fad 023e
000001b0: 7e77 5e3f e455 1240 0279 debf c49e 4440
000001c0: eec2 9840 17b6 cfbe 1109 9f3f d52b 0ec0
000001d0: 08b2 fd40 afd0 e640 0eda 0ac0 b239 a03f
000001e0: 3fc4 7dc0 2e29 0840 492d 5ec0 6bd4 83c0
000001f0: 70e7 c0bf a79b 673f 2af0 8fbe 5713 bbbf
00000200: 568e cc3f 423b ecbd 4887 833e 6545 a73e
00000210: 6ac1 bd3d 3e4d 563f ca76 1340 7abd ebbf
00000220: 8d78 3b40 88ed 9540 db48 ebbe 4c9d 9a3f
00000230: e69d 0bc0 29bb 0041 a6cc e340 82d3 09c0
00000240: 06d3 893f 0fa2 7bc0 49e4 0d40 4938 5ac0
00000250: 5d54 82c0 2546 cfbf 5770 f9bf 33e0 c840
00000260: 4eed 0c40 25b3 cec0 1e6b e53f 0033 863f
00000270: eb72 6e40 e529 cbbf 307b 17c0 92fd 71c0
00000280: de37 bac0 43c1 7c40 2d84 7940 805b 0dbf
00000290: 9907 9dc0 b07f 45c1 98b4 1740 811a aa40
000002a0: 261b 95bf 6110 ecc0 bb9e c9c0 881f 2fbe
000002b0: 8f27 2c41 bf96 9141 2a94 1cc1 9d82 6bbf
000002c0: c82a ff3f 5ea4 353f 11ac 0ec0 4864 093f
000002d0: b6b5 933e 1ace ac3f 64e6 39bf 12bc 6bbf
000002e0: 3e39 bdbf 801a 0cc0 5ef3 9b3f f104 a73f
000002f0: 2c4d 86be 07c6 eabf 8b7b 8cc0 8474 4e3f
00000300: 024e e93f c04f d9be 3014 25c0 5e78 03c0
00000310: a4eb 61be 3a81 7a40 fc77 c740 26e8 6cc0
00000320: 7a69 6dbf 343d 0240 807e 133f 5888 12c0
00000330: 3ae8 0c3f 5ade e33e 28e8 d03f c719 a7bf
00000340: 94e3 96bf cc8d c3bf fb5e 09c0 e45e b93f
00000350: 667e 9c3f cec7 adbe bb9e e6bf e226 97c0
00000360: 4c8e 2e3f 0ae0 e63f 26a5 f6be 6305 22c0
00000370: 4cb6 00c0 5e28 87be 7c42 7640 1c92 c540
00000380: d352 6cc0 fd44 85bf f4d2 6340 c044 5a40
00000390: b05f 99c0 68e0 ccbf 0048 dbbd 286f be3f
000003a0: f67c 7f40 36dd 54c0 bdc2 28be 5ad7 b3c1
000003b0: 7edd 453f 2785 0cc1 5acb 12c1 22f9 3fc1
000003c0: f0aa c5c1 40ff db3d b5bd 2ec1 ca82 fec0
000003d0: 3ba9 c2c0 5e50 45c0 a559 63c1 b296 8140
000003e0: 00dd 1fc1 8dbb b3c1 8f9f edbe c6ca a73f
000003f0: e0f5 9f3f 18bf e8bf c64c 21bf c0cd df3b

exp_avg_sq f4 [16, 3, 5, 5]
424.36246 381.86935 273.48294 402.223 441.64648 676.69495 366.6257 374.68735
710.1156 532.8733 1684.5858 1233.1361 1650.9368 1672.3982 1739.5 4164.799
3572.6255 5718.1904 6071.7505 4804.2705 2147.133 2019.4016 1624.7765 2595.1145
3078.6719 56.02245 50.214577 36.46592 53.105133 58.554626 93.140434 49.23089
51.388657 94.17455 70.19886 225.86159 163.61511 220.92516 222.23022 231.16273
539.32886 466.4028 742.8457 792.09955 622.4007 283.21188 266.38354 215.19556
345.48993 406.3659 58.93333 51.92933 37.489353 53.735672 58.87137 116.86856
61.74495 63.924934 98.91989 74.15734 229.63554 166.37225 222.03574 222.80211
232.4268 536.1566 466.82687 742.7292 791.0063 620.7587 282.96274 267.09286
215.75897 345.82486 404.09973 295.97165 154.16443 191.93109 254.8584 219.5115
243.85022 106.5798 140.47952 261.2509 359.26022 919.3859 784.05225 1856.3339
1398.6056 1564.2389 2935.1008 2270.5774 6540.195 4546.8247 5293.0835 861.48425
1252.799 1478.9344 1102.5834 2127.2402 39.864925 20.10267 24.896183 33.394318
28.4007 32.751385 14.262171 18.500269 34.332283 46.596912 122.27747 103.36948
247.21382 185.32652 208.14212 383.33124 296.58078 850.9262 593.2402 688.6506
113.133995 164.21124 196.93211 147.05542 284.18964 40.019657 20.40531 25.345371
34.125164 28.928158 36.76169 17.42101 21.765678 36.16711 48.455753 122.86752
103.57876 247.07661 185.59378 208.28084 383.86282 297.6953 851.0998 593.28436
689.92316 112.985146 163.85512 196.82458 147.2212 283.25275 522.66144 335.40668
251.44072 354.9672 340.01413 402.8176 267.74115 201.48851 175.28377 588.166
3451.5957 1805.2933 1005.02686 1451.3024 1519.8186 12563.994 6831.1616 3293.48
5535.7017 5213.8506 2563.78 977.7304 1950.0793 2400.889 2017.8119 71.579994
44.13616 32.528797 45.827057 44.58403 53.152554 35.694397 27.055178 23.105484
75.97407 460.50296 239.13417 132.88521 192.9081 201.32034 1643.6838 887.7664
426.81973 719.1879 679.5873 338.99753 129.44951 257.0836 319.77246 266.71027
71.784065 44.44184 32.981133 45.95706 44.980072 56.19425 40.60399 31.153646
25.02677 77.77133 461.4619 240.34439 133.17862 193.18272 202.00877 1643.547
888.7435 427.23663 721.2693 680.2276 339.10303 129.37259 256.9158 319.96167
267.69073 310.04028 274.08044 239.02887 401.63565 266.50934 303.79248 447.50824
351.16873 551.7726 424.58524 1660.9924 1111.523 1345.3877 1439.0878 744.7742
5449.9805 3193.8545 4281.9995 4566.5576 1940.4835 5492.7114 3503.3857 2115.1462
1394.0898 2196.0354 40.428493 36.494907 31.215904 52.83548 35.345673 40.245495
00000000: 652e d443 47ef be43 d1bd 8843 8b1c c943
00000010: c0d2 dc43 7a2c 2944 1750 b743 fb57 bb43
00000020: 6687 3144 e437 0544 bf92 d244 5b24 9a44
00000030: fa5d ce44 be0c d144 0070 d944 6426 8245
00000040: 024a 5f45 86b1 b245 01be bd45 2a22 9645
00000050: 2132 0645 da6c fc44 d918 cb44 d531 2245
00000060: c06a 4045 fd16 6042 badb 4842 1add 1142
00000070: a86b 5442 f037 6a42 e747 ba42 6eec 4442
00000080: fc8d 4d42 5f59 bc42 d165 8c42 91dc 6143
00000090: 789d 2343 d7ec 5c43 f03a 5e43 a929 6743
000000a0: 0cd5 0644 8f33 e943 20b6 3944 5f06 4644
000000b0: a599 1b44 1f9b 8d43 1831 8543 1032 5743
000000c0: b6be ac43 d62e cb43 bbbb 6b42 a2b7 4f42
000000d0: 19f5 1542 54f1 5642 487c 6b42 b4bc e942
000000e0: d4fa 7642 22b3 7f42 fcd6 c542 8f50 9442
000000f0: b3a2 6543 4c5f 2643 2609 5e43 57cd 5e43
00000100: 436d 6843 060a 0644 d769 e943 abae 3944
00000110: 67c0 4544 8f30 1b44 3b7b 8d43 e38b 8543
00000120: 4cc2 5743 95e9 ac43 c40c ca43 5ffc 9343
00000130: 182a 1a43 5cee 3f43 c0db 7e43 f282 5b43
00000140: a8d9 7343 dc28 d542 c27a 0c43 1da0 8243
00000150: 4fa1 b343 b3d8 6544 5803 4444 af0a e844
00000160: 61d3 ae44 a587 c344 9d71 3745 3de9 0d45
00000170: 8f61 cc45 9916 8e45 ab68 a545 fe5e 5744
00000180: 9199 9c44 e7dd b844 abd2 8944 d8f3 0445
00000190: af75 1f42 45d2 a041 622b c741 c893 0542
000001a0: a234 e341 6b01 0342 da31 6441 8d00 9441
000001b0: 4254 0942 3d63 3a42 118e f442 2cbd ce42
000001c0: bd36 7743 9753 3943 6224 5043 66aa bf43
000001d0: 574a 9443 47bb 5444 5f4f 1444 a329 2c44
000001e0: 9b44 e242 1436 2443 9fee 4443 300e 1343
000001f0: 4618 8e43 2114 2042 133e a341 52c3 ca41
00000200: 2b80 0842 de6c e741 f80b 1342 3a5e 8b41
00000210: 1c20 ae41 1fab 1042 b1d2 4142 2cbc f542
00000220: 5328 cf42 9d13 7743 0298 3943 e547 5043
00000230: 71ee bf43 00d9 9443 63c6 5444 3352 1444
00000240: 157b 2c44 65f8 e142 e9da 2343 18d3 4443
00000250: a138 1343 5aa0 8d43 55aa 0244 0eb4 a743
00000260: d370 7b43 cd7b b143 cf01 aa43 a768 c943
00000270: dede 8543 0f7d 4943 a548 2f43 a00a 1344
00000280: 88b9 5745 63a9 e144 b841 7b44 ad69 b544
00000290: 32fa bd44 fa4f 4446 4b79 d545 aed7 4d45
000002a0: 9dfd ac45 ceee a245 7b3c 2045 bf6e 7444
000002b0: 8ac2 f344 390e 1645 fb39 fc44 f528 8f42
000002c0: 6e8b 3042 7d1d 0242 e84e 3742 0c56 3242
000002d0: 379c 5442 10c7 0e42 0171 d841 08d8 b841
000002e0: b9f2 9742 6140 e643 5922 6f43 9de2 0443
000002f0: 79e8 4043 0252 4943 e275 cd44 0df1 5d44
00000300: ed68 d543 07cc 3344 96e5 2944 af7f a943
00000310: 1373 0143 b38a 8043 e0e2 9f43 ea5a 8543
00000320: 7191 8f42 72c4 3142 aeec 0342 08d4 3742
00000330: 98eb 3342 e9c6 6042 7c6a 2242 ab3a f941
00000340: d336 c841 ec8a 9b42 20bb e643 2a58 7043
00000350: ba2d 0543 c72e 4143 3f02 4a43 8171 cd44
00000360: 962f 5e44 4a9e d543 3c51 3444 910e 2a44
00000370: 308d a943 625f 0143 3975 8043 18fb 9f43
00000380: 6ad8 8543 2805 9b43 4c0a 8943 6407 6f43
00000390: 5dd1 c843 3241 8543 70e5 9743 0ec1 df43
000003a0: 9995 af43 72f1 0944 e94a d443 c29f cf44
000003b0: bcf0 8a44 682c a844 cfe2 b344 8c31 3a44
000003c0: d84f aa45 ac9d 4745 ffcf 8545 76b4 8e45
000003d0: 798f f244 b1a5 ab45 2cf6 5a45 5732 0445
000003e0: e042 ae44 9140 0945 c7b6 2142 c9fa 1142
000003f0: 2cba f941 8857 5342 f861 0d42 63fb 2042

exp_avg f4 [16]
-0.40083656 -0.14551267 0.14690739 -0.101539 -0.6788193 -0.2390739 -0.046107482 0.19004071
-0.46212527 0.24035938 0.073065385 -0.05044632 -0.45216793 0.15549693 0.57323563 -0.11696413
00000000: 733a cdbe 4601 15be e46e 163e aef3 cfbd
00000010: 1ac7 2dbf cacf 74be 33db 3cbd 089a 423e
00000020: af9b ecbe c520 763e 4ea3 953d cda0 4ebd
00000030: 8e82 e7be 963a 1f3e 92bf 123f e48a efbd

exp_avg_sq f4 [16]
0.5505849 0.25817874 1.2710642 1.0709692 0.9555246 0.42062783 0.09434156 0.18426718
1.0284252 0.73836094 0.22016276 1.0378554 1.0957721 0.4747498 0.7865746 1.0290732
00000000: 22f3 0c3f 0130 843e 3bb2 a23f 8515 893f
00000010: 439d 743f 885c d73e 2636 c13d 89b0 3c3e
00000020: 70a3 833f 3905 3d3f 5972 613e 72d8 843f
00000030: 4342 8c3f 6812 f33e f45c 493f acb8 833f

exp_avg f4 [16]
-8.181162 -15.009338 38.474777 -8.379197 -21.249266 68.6827 -54.82925 15.825925
8.009798 4.892087 3.369769 -49.52733 38.78945 25.310232 8.052553 16.347109
00000000: 0ae6 02c1 4026 70c1 2ce6 1942 3111 06c1
00000010: 7ffe a9c1 8b5d 8942 2751 5bc2 fd36 7d41
00000020: 2228 0041 fa8b 9c40 4caa 5740 fc1b 46c2
00000030: 6628 1b42 5b7b ca41 42d7 0041 e1c6 8241

exp_avg_sq f4 [16]
32057.33 23272.037 27544.264 37789.14 31062.69 37907.254 59362.36 13743.591
26246.26 20425.85 33902.168 41668.188 36451.387 33832.44 27460.568 31073.514
00000000: a972 fa46 13d0 b546 8730 d746 249d 1347
00000010: 61ad f246 4113 1447 5ce2 6747 5dbe 5646
00000020: 850c cd46 b393 9f46 2b6e 0447 30c4 2247
00000030: 6363 0e47 7128 0447 2389 d646 07c3 f246

exp_avg f4 [16]
-14.262834 3.1744716 -17.851807 -5.186077 -6.7817626 7.9142632 -11.528947 -2.866489
-6.678028 -7.9100027 -7.664038 -12.453114 -12.3111 8.997262 4.130129 -3.392294
00000000: 9134 64c1 8b2a 4b40 80d0 8ec1 58f4 a5c0
00000010: 3304 d9c0 a541 fd40 9176 38c1 8e74 37c0
00000020: 68b2 d5c0 be1e fdc0 cd3f f5c0 f43f 47c1
00000030: 44fa 44c1 c9f4 0f41 042a 8440 581b 59c0

exp_avg_sq f4 [16]
2759.742 2321.2603 2790.6814 2437.999 6381.2866 1490.4254 789.7875 735.0404
2808.255 1909.4148 1780.9342 4439.1523 4074.4385 1561.352 1820.4897 3284.4392
00000000: df7b 2c45 2a14 1145 e76a 2e45 fc5f 1845
00000010: 4b6a c745 9d4d ba44 6672 4544 96c2 3744
00000020: 1484 2f45 46ad ee44 e59d de44 38b9 8a45
00000030: 04a7 7e45 442b c344 ac8f e344 0747 4d45
