code/models/CNN_02.pt (torch, 174432 bytes, 20 tensors)

conv1.weight f4 [16, 3, 5, 5]
0.44727048 -1.6541456 -0.21183899 0.8109363 -0.046499874 -0.21726972 -0.028911421 0.7376023
0.64158255 0.5823408 -0.41318125 -0.3214133 -0.55794424 -1.3958327 1.7815331 1.17034
0.9673696 0.41797873 0.25811264 -1.8450588 1.3000419 -1.210152 -0.6554492 -0.27185136
-0.85772055 0.15179129 -1.1995037 0.23387273 0.32311207 0.22665657 0.13020307 0.20776951
0.62400216 0.8311926 0.33115157 -0.2910827 -0.27043054 -0.3912563 -0.5866419 2.0334294
0.75200266 1.1111183 0.3811712 0.4452328 -1.4122374 0.8003755 -1.0741335 -0.18113658
0.048703708 -0.19080377 -0.030531757 -0.8578813 -0.064981095 0.08594129 0.16315246 0.20803525
0.28782392 -0.102101386 0.6471191 -0.8085713 -0.5077098 -0.26038122 -0.7498421 -0.16914167
2.1308937 0.61307895 1.0242743 0.46842587 0.52040994 -0.96351695 0.54407185 -1.0858155
-0.18117529 -0.1834486 -0.46421707 -0.26088053 0.8968029 0.9246929 1.608285 0.1968338
-0.33191836 -0.86755687 -0.892079 -0.32394794 1.2156034 -1.994259 -1.1432128 -1.292674
-0.73870033 0.36587536 0.36399904 -0.74317354 0.9838391 -0.44224176 -0.25353876 1.8199362
1.405566 -0.26107582 -1.2957536 0.34431627 0.0111911455 0.869727 0.82747096 1.5362632
0.16485067 0.11133164 -0.005911893 -0.26215768 -0.36254033 0.76161134 -1.4934478 -0.59661067
-1.0433146 0.112780035 0.18726541 0.44980338 -0.79742956 1.4988554 -0.55096567 -0.3687867
1.7005324 1.2570697 -0.038496654 -1.2051358 0.32696432 -0.11298944 1.6406982 2.1516247
1.9709991 -0.10362347 0.39580593 0.74593014 0.008731483 -0.5522256 0.25214303 -0.70281583
-0.75360423 -1.6242585 0.15273759 -0.2894217 0.13033748 -0.8945067 1.7808502 0.05085768
-0.1497719 1.7148224 1.3781226 0.27625716 -0.96861315 0.55163217 -0.5925465 0.9112903
1.0856546 0.12790288 1.1279488 1.5223192 -1.3293308 -0.966316 -0.5789695 0.47844526
-0.7272048 -1.2061656 -1.234024 0.25624818 0.23717521 0.6003102 0.99859005 -1.1179247
1.3713601 -0.80764365 0.36727133 2.0589986 0.78273743 -0.68638843 -0.6810275 -1.3309475
0.44781044 0.7559974 -0.063995406 0.9991274 1.5426527 -0.46144772 -0.02399976 -0.21817061
0.40756708 -0.662857 -0.7229813 -0.70371175 0.37654868 0.4845725 0.31109896 0.6191994
-1.4924331 1.158549 -1.0068047 0.09235134 1.9086559 0.41797385 -0.5855038 -0.79233384
-1.2736732 -0.52252644 0.3345734 0.32671157 1.2771916 0.93584293 -0.22196043 0.792274
-0.01735578 -0.3230567 -0.86848974 -1.0876758 -0.863227 0.15098827 -0.19321685 0.21773998
0.1888537 -1.1557661 1.0110855 -1.1402085 -0.29832795 1.416787 0.93368393 -0.4442755
-0.7707196 0.3623001 1.3507735 0.7915614 0.35744855 0.9722477 -0.6541141 -0.18184
-0.66120356 -1.069712 0.23254554 -0.76960975 -1.1007817 -1.1714201 -0.8954312 -0.1133613
0.5937499 1.8089646 -0.9643468 0.7855187 2.263405 0.004309255 -0.095006935 -0.37573615
1.7427874 0.23372856 0.4293735 0.9391489 0.3597315 0.56988555 0.41522104 0.034510694
00000000: a300 e53e 0bbb d3bf 52ec 58be 8599 4f3f
00000010: a776 3ebd f47b 5ebe a5d7 ecbc 81d3 3c3f
00000020: c13e 243f 4914 153f 7e8c d3be 4990 a4be
00000030: 6fd5 0ebf a5aa b2bf 4709 e43f b3cd 953f
00000040: 89a5 773f 4f01 d63e 5727 843e e32a ecbf
00000050: c667 a63f 43e6 9abf 85cb 27bf 1a30 8bbe
00000060: 9393 5bbf 2d6f 1b3e 5689 99bf 557c 6f3e
00000070: f26e a53e a918 683e f453 053e 88c1 543e
00000080: 9bbe 1f3f 0ac9 543f b38c a93e cb08 95be
00000090: df75 8abe bf52 c8be 2a2e 16bf b523 0240
000000a0: 3f83 403f 2039 8e3f df28 c33e 8ef5 e33e
000000b0: 32c4 b4bf 69e5 4c3f 357d 89bf de7b 39be
000000c0: 8a7d 473d 1062 43be bc1d fabc 1c9e 5bbf
000000d0: cf14 85bd fd01 b03d 7011 273e 3107 553e
000000e0: a85d 933e 881a d1bd 99a9 253f 87fe 4ebf
000000f0: 45f9 01bf b050 85be a7f5 3fbf 7933 2dbe
00000100: 9060 0840 bef2 1c3f 6c1b 833f 84d5 ef3e
00000110: 9639 053f 0ca9 76bf 4b48 0b3f 01fc 8abf
00000120: 0486 39be f3d9 3bbe dcad edbe 2292 85be
00000130: e094 653f adb8 6c3f 48dc cd3f cd8e 493e
00000140: 34f1 a9be 3518 5ebf 4a5f 64bf 81dc a5be
00000150: e498 9b3f e143 ffbf cc54 92bf 5776 a5bf
00000160: 771b 3dbf 0454 bb3e 155e ba3e 9f40 3ebf
00000170: e1dc 7b3f 836d e2be d5cf 81be abf3 e83f
00000180: 96e9 b33f bbab 85be 41db a5bf 394a b03e
00000190: 115b 373c 6ea6 5e3f 23d5 533f 46a4 c43f
000001a0: 9dce 283e d801 e43d 8eb8 c1bb 8839 86be
000001b0: e39e b9be f6f8 423f 4c29 bfbf 7abb 18bf
000001c0: 558b 85bf 38f9 e63d 81c2 3f3e a14c e63e
000001d0: 5824 4cbf 7eda bf3f 160c 0dbf 9cd1 bcbe
000001e0: 0cab d93f a9e7 a03f abae 1dbd e441 9abf
000001f0: de67 a73e 0267 e7bd 6602 d23f 38b4 0940
00000200: b349 fc3f 8b38 d4bd 13a7 ca3e 47f5 3e3f
00000210: 7e0e 0f3c a85e 0dbf e418 813e bdeb 33bf
00000220: 35ec 40bf b4e7 cfbf 3e67 1c3e 152f 94be
00000230: 3077 053e 64fe 64bf e6f2 e33f 2550 503d
00000240: ce5d 19be 4d7f db3f 5266 b03f 9471 8d3e
00000250: 08f7 77bf c437 0d3f 21b1 17bf 524a 693f
00000260: bbf6 8a3f f9f8 023e a060 903f 5bdb c23f
00000270: 8327 aabf 7c60 77bf 5837 14bf c7f6 f43e
00000280: 182a 3abf a263 9abf 80f4 9dbf f632 833e
00000290: 0fde 723e eead 193f 99a3 7f3f 2818 8fbf
000002a0: ba88 af3f bcc1 4ebf fd0a bc3e a2c6 0340
000002b0: 7b61 483f 27b7 2fbf d157 2ebf 7d5c aabf
000002c0: 6947 e53e 0c89 413f 0610 83bd d0c6 7f3f
000002d0: a575 c53f e042 ecbe 259b c4bc 1e68 5fbe
000002e0: a2ac d03e ffb0 29bf 4d15 39bf 7426 34bf
000002f0: fdca c03e e319 f83e 5d48 9f3e da83 1e3f
00000300: 0c08 bfbf 554b 943f fade 80bf b322 bd3d
00000310: d64e f43f ab00 d63e 94e3 15bf 64d6 4abf
00000320: b907 a3bf 4bc4 05bf 344d ab3e bd46 a73e
00000330: 047b a33f 6793 6f3f 9849 63be 78d2 4a3f
00000340: b52d 8ebc b067 a5be 5855 5ebf f638 8bbf
00000350: 72fc 5cbf ab9c 1a3e a3da 45be 3bf7 5e3e
00000360: dd62 413e 25f0 93bf 406b 813f 5af2 91bf
00000370: 71be 98be 4759 b53f e905 6f3f 1478 e3be
00000380: e14d 45bf 667f b93e 25e6 ac3f c5a3 4a3f
00000390: 7f03 b73e 3ae5 783f 0674 27bf 4434 3abe
000003a0: a344 29bf 53ec 88bf 6b20 6e3e 2505 45bf
000003b0: 6ae6 8cbf 18f1 95bf fb3a 65bf f829 e8bd
000003c0: feff 173f 278c e73f 6fdf 76bf c117 493f
000003d0: a1db 1040 a734 8d3b ff92 c2bd 7d60 c0be
000003e0: a813 df3f 8a56 6f3e d8d6 db3e 106c 703f
000003f0: ba2e b83e 05e4 113f da97 d43e 165b 0d3d

conv1.bias f4 [16]
0.47894156 0.67841005 -1.2135837 0.2682724 0.23293956 -1.1497121 0.65441704 -0.53979754
1.4464198 1.2508355 -0.8583576 0.61050516 -0.8087676 -0.08412444 -0.46013227 0.7570308
00000000: d437 f53e 48ac 2d3f b656 9bbf 005b 893e
00000010: b587 6e3e c429 93bf e087 273f 2c30 0abf
00000020: 4924 b93f 611b a03f 53bd 5bbf 114a 1c3f
00000030: 650b 4fbf 6f49 acbd 7596 ebbe c5cc 413f

bn1.weight f4 [16]
1.5331566 1.1967075 1.5087806 1.3985492 1.54889 1.3031166 1.0332881 1.306969
1.1742399 1.2526006 1.1290019 1.4346856 1.4128523 1.1979431 1.4264938 1.5434154
00000000: 7a3e c43f b62d 993f b91f c13f a903 b33f
00000010: 0742 c63f 86cc a63f c942 843f c34a a73f
00000020: 7e4d 963f 3755 a03f 2283 903f c7a3 b73f
00000030: 58d8 b43f 3356 993f 5997 b63f a38e c53f

bn1.bias f4 [16]
-0.011261822 1.6220034 1.1800468 1.4997969 -0.0071987705 1.9735756 2.7554448 2.1571734
2.0274 1.3843192 1.9785537 2.2506394 1.2081646 1.8831843 0.99818367 1.6790241
00000000: 8183 38bc cf9d cf3f c60b 973f 58f9 bf3f
00000010: aae3 ebbb 209e fc3f 3559 3040 210f 0a40
00000020: ecc0 0140 5f31 b13f 3f41 fd3f 7a0a 1040
00000030: 23a5 9a3f 2f0c f13f f788 7f3f 43ea d63f

bn1.running_mean f4 [16]
0.4791222 0.6788205 -1.214351 0.26891032 0.23277281 -1.148666 0.65402883 -0.53893846
1.446032 1.2511153 -0.8584842 0.6114494 -0.8094396 -0.08329007 -0.45992753 0.75577587
00000000: 814f f53e 2ec7 2d3f db6f 9bbf 9dae 893e
00000010: ff5b 6e3e 7d07 93bf 6f6e 273f dff7 09bf
00000020: 9417 b93f 8c24 a03f 9fc5 5bbf f387 1c3f
00000030: 6f37 4fbf fc93 aabd 9f7b ebbe 877a 413f

bn1.running_var f4 [16]
0.0034818924 0.003985906 0.0034446663 0.0046658074 0.0032490508 0.0044246665 0.0064816712 0.0046118665
0.0037166653 0.0054698335 0.005933138 0.004008015 0.0045717 0.004491521 0.003531448 0.0035960204
00000000: 7630 643b 349c 823b e9bf 613b a1e3 983b
00000010: 07ee 543b cbfc 903b 3364 d43b 241f 973b
00000020: 4c93 733b 4a3c b33b c56a c23b ab55 833b
00000030: 33ce 953b 9c2d 933b de6f 673b 36ab 6b3b

conv2.weight f4 [32, 16, 5, 5]
-0.021387478 1.09353 0.42138183 0.21037701 -1.129977 0.09128166 -0.587728 -0.6290504
0.15078111 -1.2179987 -0.013122877 -0.10182164 -1.4563564 0.7257467 -2.2401109 -1.1313493
0.0695483 -0.156102 -0.8039109 0.7448625 0.58927625 0.34209844 -0.32766604 -1.3830476
-0.2521976 -1.4838166 -0.90085274 0.35987648 -0.014020983 0.7960001 0.20505753 -0.4459759
-1.5059408 -1.8861271 -2.106208 0.0043587405 -0.3921378 -1.5352173 -0.23311158 -0.6244986
-1.313085 0.79880714 -1.1456583 -1.165976 0.2323545 0.17142695 1.2844862 0.44557348
1.0066655 0.62785727 0.5249079 -0.16004638 0.052563235 -1.3326043 0.2666362 -0.45377287
0.09005512 0.97097886 -0.91864234 -2.7599366 -1.9005245 0.33820292 -0.9232723 0.849425
-1.1789532 -0.19969682 -0.63933814 -0.5414056 -0.26335704 -0.86785173 1.2720821 -1.0732257
-1.2727696 -1.6336952 -0.4758668 -2.2074645 -0.49959683 -1.0028338 -0.48497924 -2.7457418
0.6571989 -0.8694817 -0.5017451 -0.34760454 -0.11001302 -0.48505145 -1.6394069 0.1689257
-0.55774844 -0.2970791 -1.0938531 -1.9653234 -1.327438 -1.4554273 -0.21808799 0.53465843
-0.92520136 -0.9193643 1.5860758 0.100201026 1.1162893 -2.0216484 -0.28907484 0.19127129
-2.110885 0.44087508 -0.6124935 -1.7058718 0.97802347 -0.02837755 -1.7194908 -1.2465508
1.3592068 -0.7777297 0.13962391 1.1497287 -0.9474291 -0.8630174 -0.50962603 -2.535988
-2.4103796 -0.53124654 -0.7631341 -1.7499206 1.2251563 0.9303219 -2.7850442 -1.1806704
-0.43826994 0.4594636 -0.06608413 -1.4578974 -0.24872655 -0.45303315 0.71697706 0.5052727
-0.3557818 0.7491991 -0.39262494 -0.5568976 -0.4682546 -0.63103664 -1.4738879 0.48210785
-0.41837046 -0.90905213 1.1036154 -0.7535789 0.28098634 -1.3770003 -0.75929 -0.5651866
0.09110454 0.03906345 0.35078806 1.0592864 1.680418 0.1095361 -0.2362209 -2.2082498
-1.2334557 -0.22466972 1.2957597 -0.4524723 -2.833581 0.8630865 -0.8794679 -2.4655411
0.57544476 0.58112174 -0.88804364 0.50520134 -0.44130868 -0.12305176 -1.9003048 -1.9230062
1.0447856 -1.3451395 1.4172404 0.6682707 1.0184642 0.64067805 -1.7738116 -0.7229876
-0.6024482 -0.90596163 0.21085648 0.963266 0.6455608 -0.98962903 -1.2605013 -1.4263033
-0.4453967 1.5613126 -1.2510827 -0.9226025 0.14544262 -0.5865504 0.22674634 -0.17917705
0.25573558 -2.6325521 -0.7096539 0.77437526 0.0056702015 -0.39284158 -2.1461313 -1.9271485
-0.2906113 -0.911878 -0.55920523 0.24582168 1.320555 -0.98128206 -0.3015103 0.55245143
-0.12566648 0.3430876 0.17019676 -0.5193642 -1.8105726 -0.01071062 -0.7292816 -0.80260545
-1.0635943 -0.7533219 -1.3751268 0.39685506 -0.19786862 -0.7433669 -0.93513924 -0.79352874
0.0936858 -1.0266306 -1.2572391 -0.7259951 -0.7433775 0.5034512 -0.30985498 0.5912556
1.51003 0.35743833 -0.7723296 0.27588636 1.5224681 -1.4660915 -0.6396416 0.814023
0.7859192 0.068271905 0.68166846 0.6989852 -0.4578915 -0.38250798 0.51872045 -1.0779345
00000000: cb34 afbc cbf8 8b3f 5cbf d73e 126d 573e
00000010: 16a3 90bf e1f1 ba3d 5875 16bf 7209 21bf
00000020: 5d66 1a3e 62e7 9bbf 5601 57bc dd87 d0bd
00000030: e369 babf 89ca 393f fa5d 0fc0 0ed0 90bf
00000040: 576f 8e3d 34d9 1fbe 1bcd 4dbf 4faf 3e3f
00000050: cfda 163f 8727 af3e d8c3 a7be b407 b1bf
00000060: 0b20 81be b4ed bdbf 499e 66bf bb41 b83e
00000070: 44b8 65bc aac6 4b3f 9afa 513e f456 e4be
00000080: abc2 c0bf 9d6c f1bf 1dcc 06c0 c4d3 8e3b
00000090: 49c6 c8be 0082 c4bf cdb4 6ebe 24df 1fbf
000000a0: 2b13 a8bf a07e 4c3f eea4 92bf b43e 95bf
000000b0: 57ee 6d3e 8c8a 2f3e 0b6a a43f 3522 e43e
000000c0: 6ada 803f 41bb 203f 5d60 063f 33e3 23be
000000d0: 8c4c 573d c792 aabf 8a84 883e eb54 e8be
000000e0: d26e b83d 1292 783f 252c 6bbf cda2 30c0
000000f0: 6344 f3bf ef28 ad3e 935b 6cbf eb73 593f
00000100: f0e7 96bf 537d 4cbe aaab 23bf 8f99 0abf
00000110: bcd6 86be 882b 5ebf 96d3 a23f 765f 89bf
00000120: 1dea a2bf ed1c d1bf d0a4 f3be 1947 0dc0
00000130: 28cb ffbe dc5c 80bf 334f f8be 3cba 2fc0
00000140: 303e 283f 5a96 5ebf 5e72 00bf 39f9 b1be
00000150: 824e e1bd aa58 f8be 16d8 d1bf dcfa 2c3e
00000160: 9ac8 0ebf c01a 98be 6103 8cbf b88f fbbf
00000170: 7de9 a9bf 714b babf 7552 5fbe 60df 083f
00000180: ffd9 6cbf 755b 6bbf 8804 cb3f 3236 cd3d
00000190: 91e2 8e3f b062 01c0 9e01 94be 9fdc 433e
000001a0: bd18 07c0 61ba e13e 60cc 1cbf 025a dabf
000001b0: bf5f 7a3f 0978 e8bc 4618 dcbf fa8e 9fbf
000001c0: 7dfa ad3f 4b19 47bf 92f9 0e3e 4f2a 933f
000001d0: b78a 72bf b5ee 5cbf da76 02bf a14d 22c0
000001e0: a943 1ac0 c6ff 07bf c25c 43bf 66fd dfbf
000001f0: ecd1 9c3f 9329 6e3f 2a3e 32c0 3520 97bf
00000200: eb64 e0be d03e eb3e 1e57 87bd 629c babf
00000210: 2cb2 7ebe f6f3 e7be cf8b 373f 8d59 013f
00000220: 0829 b6be 83cb 3f3f 2306 c9be d790 0ebf
00000230: 11bf efbe 9e8b 21bf 5ca8 bcbf d7d6 f63e
00000240: a734 d6be a4b7 68bf 4543 8d3f 8cea 40bf
00000250: 71dd 8f3e 8c41 b0bf d460 42bf 12b0 10bf
00000260: 0495 ba3d ff00 203d 7e9a b33e b296 873f
00000270: f017 d73f 7654 e03d e4e3 71be f753 0dc0
00000280: e0e1 9dbf d20f 66be 74db a53f 73aa e7be
00000290: 6459 35c0 3df3 5c3f cf24 61bf 6dcb 1dc0
000002a0: 5950 133f 65c4 143f d456 63bf e054 013f
000002b0: 36f3 e1be 9002 fcbd 303d f3bf 1125 f6bf
000002c0: 89bb 853f 882d acbf 2268 b53f ca13 2b3f
000002d0: 095d 823f 7a03 243f 420c e3bf b715 39bf
000002e0: 0c3a 1abf 1aed 67bf c3ea 573e 9a98 763f
000002f0: 7943 253f 5458 7dbf 1b58 a1bf 1b91 b6bf
00000300: 090b e4be 17d9 c73f 7a23 a0bf ad2f 6cbf
00000310: e9ee 143e 2b28 16bf 3130 683e 307a 37be
00000320: c6ef 823e bc7b 28c0 e1ab 35bf 753d 463f
00000330: 19cd b93b 8822 c9be 375a 09c0 cdac f6bf
00000340: 01cb 94be d670 69bf 1328 0fbf aeb8 7b3e
00000350: f207 a93f 4d35 7bbf 8f5f 9abe 756d 0d3f
00000360: b7ae 00be 2ea9 af3e 0f48 2e3e 0df5 04bf
00000370: d8c0 e7bf 997b 2fbc 33b2 3abf 8d77 4dbf
00000380: dc23 88bf b4d9 40bf 2804 b0bf 9630 cb3e
00000390: 129e 4abe 4b4d 3ebf 4965 6fbf b324 4bbf
000003a0: 57de bf3d a268 83bf 36ed a0bf d1da 39bf
000003b0: fd4d 3ebf 2ee2 003f 50a5 9ebe 875c 173f
000003c0: aa48 c13f 2802 b73e 65b7 45bf fa40 8d3e
000003d0: 3ce0 c23f e3a8 bbbf 8dbf 23bf d063 503f
000003e0: 0032 493f 24d2 8b3d d381 2e3f b2f0 323f
000003f0: c170 eabe 16d8 c3be ddca 043f c2f9 89bf

conv2.bias f4 [32]
-0.2834055 0.5988857 -0.54968065 -0.10227652 0.015595381 0.4021826 0.4625441 -1.0847241
-0.14311717 0.9175582 -1.3032771 -0.12914096 0.54180783 0.16459693 0.64530903 0.72964513
-0.5979479 0.11134258 -0.30978388 0.24442078 1.0049856 -0.08478797 0.34211895 -0.36317712
0.25476533 -0.15043457 0.654543 0.12843314 -0.696227 -0.3077831 -0.40279278 -0.17771797
00000000: 871a 91be 9350 193f dfb7 0cbf 5a76 d1bd
00000010: c583 7f3c e1ea cd3e 95d2 ec3e 3dd8 8abf
00000020: 4f8d 12be 18e5 6a3f c9d1 a6bf 873d 04be
00000030: ebb3 0a3f 198c 283e f932 253f 06ca 3a3f
00000040: 1d13 19bf 9407 e43d fe9b 9ebe 7149 7a3e
00000050: 5ea3 803f 51a5 adbd 372a af3e 5af2 b9be
00000060: 9a70 823e 850b 1abe 2190 273f fa83 033e
00000070: ef3b 32bf bf95 9dbe db3a cebe b3fb 35be

bn2.weight f4 [32]
2.9745448 1.3199612 1.9973387 2.6233313 2.7849178 2.1578727 3.101854 2.0650742
1.6166388 2.2389836 2.3728912 3.1379385 0.91953766 0.4185493 3.3318515 2.9230905
2.8758101 3.036784 1.8723445 2.6642685 1.5798297 0.44963947 1.586994 2.4098587
2.8729749 1.4112344 1.7626585 2.35569 3.3552458 1.9835082 2.2683318 2.7762153
00000000: f15e 3e40 7df4 a83f cba8 ff3f a9e4 2740
00000010: 183c 3240 961a 0a40 c784 4640 2d2a 0440
00000020: 05ee ce3f 824b 0f40 73dd 1740 fcd3 4840
00000030: d266 6b3f 184c d63e 0e3d 5540 ea13 3b40
00000040: 460d 3840 ab5a 4240 fca8 ef3f 6083 2a40
00000050: dc37 ca3f 2537 e63e 9f22 cb3f 203b 1a40
00000060: d2de 3740 54a3 b43f cb9e e13f a0c3 1640
00000070: 59bc 5640 99e3 fd3f 592c 1140 83ad 3140

bn2.bias f4 [32]
-0.2903252 0.33743894 -0.20130965 0.48308066 -0.004093915 0.060543183 -0.16822465 0.2472971
-0.05919512 0.14123565 -0.06060102 -0.38825384 0.019961517 0.22121878 0.23889542 -0.6267428
0.08663407 -0.6309532 0.31982243 -0.12181402 0.5541299 -0.78469694 0.25373554 0.0019258076
-0.46988386 0.3982647 0.38262668 -0.15850727 0.07074145 1.5619407 0.07114314 -0.0013313908
00000000: 81a5 94be ccc4 ac3e 1e24 4ebe 5956 f73e
00000010: 4026 86bb 21fc 773d 1543 2cbe 733b 7d3e
00000020: 9576 72bd 14a0 103e c638 78bd 35c9 c6be
00000030: 5686 a33c 2d87 623e 00a1 743e 3772 20bf
00000040: 346d b13d 2686 21bf c4bf a33e a179 f9bd
00000050: 75db 0d3f e6e1 48bf a0e9 813e 616b fc3a
00000060: 9e94 f0be 5ae9 cb3e a5e7 c33e bb4f 22be
00000070: e5e0 903d aced c73f 7fb3 913d 1082 aeba

bn2.running_mean f4 [32]
-224.15053 -210.8191 -193.0751 -205.20418 -223.85141 -265.05338 -185.6232 -205.45177
-190.15604 -194.65277 -207.28008 -232.48076 -169.99933 36.11296 -242.42181 -239.91374
-231.56631 -234.74269 -199.52998 -212.5151 -222.768 121.22615 -204.96338 -213.57866
-209.75372 -194.21358 -203.87975 -235.872 -233.44098 -232.60716 -212.97012 -173.38765
00000000: 8926 60c3 b1d1 52c3 3a13 41c3 4534 4dc3
00000010: f6d9 5fc3 d586 84c3 8a9f 39c3 a773 4dc3
00000020: f227 3ec3 1ca7 42c3 b347 4fc3 137b 68c3
00000030: d4ff 29c3 ac73 1042 fc6b 72c3 ebe9 6fc3
00000040: fa90 67c3 21be 6ac3 ad87 47c3 de83 54c3
00000050: 9cc4 5ec3 ca73 f242 a0f6 4cc3 2394 55c3
00000060: f4c0 51c3 ad36 42c3 37e1 4bc3 3bdf 6bc3
00000070: e470 69c3 6f9b 68c3 5af8 54c3 3d63 2dc3

bn2.running_var f4 [32]
673.2507 657.5488 735.1221 904.9033 733.5842 556.59955 596.07764 692.58673
666.486 530.45483 508.9562 666.99713 318.40414 334.8667 1227.6333 600.9575
793.61194 722.4971 647.458 668.808 645.294 315.924 403.916 884.0487
652.6597 523.4828 779.3109 793.62384 752.82886 684.23425 759.49774 711.39984
00000000: 0b50 2844 2063 2444 d0c7 3744 d039 6244
00000010: 6465 3744 5f26 0b44 f804 1544 8d25 2d44
00000020: 1b9f 2644 1c9d 0444 657a fe43 d1bf 2644
00000030: bb33 9f43 f06e a743 4474 9944 483d 1644
00000040: 2a67 4644 d09f 3444 50dd 2144 b633 2744
00000050: d152 2144 46f6 9d43 3ff5 c943 1e03 5d44
00000060: 392a 2344 e6de 0244 e6d3 4244 ed67 4644
00000070: 0c35 3c44 fe0e 2b44 dbdf 3d44 97d9 3144

conv3.weight f4 [32, 32, 5, 5]
0.85507905 0.8703501 -1.3735946 0.285919 -1.2664435 1.1936707 -0.36169177 -0.15603882
-0.62271464 0.963535 0.48954675 0.8304289 -0.22805913 0.5348815 1.8536054 0.4710797
-0.92572945 0.1285373 -0.153309 -0.42776316 0.9441971 0.6985941 0.5088279 -1.4523895
-0.77950394 -0.23943286 0.9667924 0.866738 0.86209875 0.055182613 -1.510578 0.76354516
0.43283433 0.98252076 -0.29181254 0.33583555 0.31811997 0.76897925 0.1061268 0.5300354
0.56795245 0.47597975 -0.07090049 -0.7545915 -0.8126004 -0.5561371 -1.1370199 0.87265176
-0.18877287 -1.3622168 -0.6544628 -2.1745646 0.9902808 -0.006834332 -1.1706624 0.41834834
0.35129258 0.2323169 -2.3260832 -0.6314376 -0.16228259 -0.3977074 0.7253362 -0.6648838
1.2631813 -0.48902127 0.9665642 -0.29701224 -1.1892223 -0.74292004 0.5317645 -0.7834991
-0.57358754 -0.49610463 -0.5727042 -0.29860812 -0.9229679 -0.39983997 1.8725941 0.72147566
-1.4899818 -0.7254736 1.013959 -0.85202855 0.58225536 -0.017563902 -1.083489 -0.52102566
-0.98527867 -0.80127203 -0.50291145 1.1577024 1.2079265 0.044318162 -0.6828307 -2.571337
0.12345508 0.39474234 0.35627845 2.678349 0.6333758 0.13417056 1.2026615 -0.09461443
-0.41308177 -2.348299 -0.20344014 1.1824759 -0.08853395 0.33443975 -0.23505719 -0.5105908
1.0124893 0.49010447 0.5040984 -0.07792141 0.5236863 -0.1238498 0.7575113 -1.690316
-1.9495109 -1.7490686 0.4442562 1.2625526 1.2227403 -0.39021772 0.11279107 0.9070135
0.47886187 -0.3105743 0.44882637 -0.11954016 1.3891946 -0.75975996 -1.0553592 -0.5175062
-0.20023169 1.7010255 0.15307546 -0.68092483 -0.4349533 -0.34784007 -1.1137139 1.438726
0.14801736 1.2101986 1.4511328 0.51279086 -1.933602 -1.6337229 0.58899015 -0.024022294
0.88459414 -0.6200407 -0.8188902 -1.1761634 -0.1930387 -0.8480456 -0.04844889 2.7576118
0.49580184 1.1240698 -1.2369089 -0.11721307 0.33655062 0.2538489 0.77112925 1.2270471
0.5629235 -0.43355513 1.9314346 -1.6943638 -1.0757369 0.01487533 0.47246715 1.1199317
-0.2070465 -0.40893337 1.466623 0.33766714 -0.24633937 0.27483618 -0.29493603 0.46564308
1.4765755 -0.37472555 -0.4797722 0.13750216 0.8543128 0.7879062 0.60265577 1.1209491
-0.24415247 -1.3373133 1.2073212 -0.53874296 -0.14260685 -0.20931153 -0.749732 0.60298085
0.88031924 0.85478866 -2.142012 0.48739418 0.337042 0.0541917 0.59297454 0.60401785
-0.3682973 0.12872638 0.6044641 -0.19161454 -1.1570293 0.50968707 1.0790715 0.25308362
0.16877595 -1.3336282 0.6911237 0.84419125 1.0298162 0.23293597 -0.5376527 -2.2173896
1.4940461 0.7620082 -0.93378884 -0.58065104 0.70301497 0.9555599 -0.06496235 -0.98635453
-0.21417439 -1.1403625 0.289199 -0.43436134 -0.39990118 -0.33487242 0.5448312 1.5901753
0.5860956 0.25160104 0.3686003 -0.023347382 -0.9064669 -0.65902823 -1.4736607 0.32571867
-0.23990014 0.010727723 0.40652373 -0.5589535 0.63877904 -1.0304645 -2.2277806 1.2969159
00000000: 76e6 5a3f 44cf 5e3f f3d1 afbf fa63 923e
00000010: d21a a2bf 34ca 983f aa2f b9be a4c8 1fbe
00000020: 3a6a 1fbf 3baa 763f dfa5 fa3e fd96 543f
00000030: 5588 69be feed 083f f142 ed3f 5c31 f13e
00000040: 9bfc 6cbf 489f 033e 09fd 1cbe c603 dbbe
00000050: e7b6 713f 10d7 323f 8c42 023f e6e7 b9bf
00000060: 928d 47bf e32d 75be b57f 773f 8be2 5d3f
00000070: 81b2 5c3f 2a07 623d 9f5a c1bf b277 433f
00000080: 769c dd3e 7b86 7b3f 7468 95be a3f2 ab3e
00000090: 9fe0 a23e d3db 443f 0259 d93d 66b0 073f
000000a0: 5565 113f 9eb3 f33e 4734 91bd e92c 41bf
000000b0: 9406 50bf 005f 0ebf de89 91bf 1b66 5f3f
000000c0: ad4d 41be 1f5d aebf e08a 27bf 112c 0bc0
000000d0: 0b83 7d3f 88f2 dfbb 44d8 95bf c131 d63e
000000e0: 9fdc b33e 7be4 6d3e 8cde 14c0 e5a5 21bf
000000f0: 682d 26be 4ea0 cbbe a2af 393f d335 2abf
00000100: edaf a13f ff60 fabe c070 773f fd11 98be
00000110: 7038 98bf 0230 3ebf b821 083f 6693 48bf
00000120: a2d6 12bf 6d01 febe be9c 12bf 2ae3 98be
00000130: a047 6cbf d3b7 ccbe 2ab1 ef3f a1b2 383f
00000140: b9b7 bebf a3b8 39bf 69c9 813f 8b1e 5abf
00000150: b00e 153f 2ce2 8fbc c4af 8abf f061 05bf
00000160: 393b 7cbf 2a20 4dbf cebe 00bf 982f 943f
00000170: 569d 9a3f f686 353d fecd 2ebf c990 24c0
00000180: 04d6 fc3d ab1b ca3e 216a b63e 126a 2b40
00000190: eb24 223f 0264 093e d0f0 993f 36c5 c1bd
000001a0: 747f d3be 884a 16c0 9d52 50be 5f5b 973f
000001b0: 4a51 b5bd b03b ab3e d5b2 70be 14b6 02bf
000001c0: 4099 813f f9ee fa3e 980c 013f 4395 9fbd
000001d0: 4e10 063f f7a4 fdbd 43ec 413f 465c d8bf
000001e0: 9389 f9bf 7be1 dfbf 8c75 e33e 539b a13f
000001f0: c182 9c3f 9eca c7be 01ff e63d 0932 683f
00000200: 622d f53e 9803 9fbe 92cc e53e 79d1 f4bd
00000210: 21d1 b13f a17f 42bf 0316 87bf 497b 04bf
00000220: 8909 4dbe 34bb d93f d0bf 1c3e 1751 2ebf
00000230: 33b2 debe 1818 b2be 2d8e 8ebf 2c28 b83f
00000240: dd91 173e cae7 9a3f b8be b93f 4346 033f
00000250: 4580 f7bf d51d d1bf 0fc8 163f 67ca c4bc
00000260: c374 623f fdba 1ebf caa2 51bf 868c 96bf
00000270: f0ab 45be 8419 59bf 5872 46bd b67c 3040
00000280: bdd9 fd3e 85e1 8f3f 0853 9ebf 680d f0bd
00000290: 5d50 ac3e 7cf8 813e ba68 453f e10f 9d3f
000002a0: c11b 103f f0fa ddbe 4039 f73f eae0 d8bf
000002b0: bfb1 89bf a8b7 733c 37e7 f13e ec59 8f3f
000002c0: ff03 54be b75f d1be 4dba bb3f b5e2 ac3e
000002d0: 6340 7cbe 54b7 8c3e db01 97be c568 ee3e
000002e0: 6d00 bd3f 07dc bfbe b4a4 f5be 5ecd 0c3e
000002f0: 3eb4 5a3f 39b4 493f a647 1a3f 437b 8f3f
00000300: 1b03 7abe 152d abbf 8089 9a3f 0feb 09bf
00000310: 8807 12be c355 56be 70ee 3fbf f45c 1a3f
00000320: 9a5c 613f 6ed3 5a3f b916 09c0 bb8b f93e
00000330: c590 ac3e 1ef8 5d3d 2ecd 173f eaa0 1a3f
00000340: 7791 bcbe d9d0 033e 29be 1a3f 9a36 44be
00000350: 8919 94bf da7a 023f 041f 8a3f 2d94 813e
00000360: 9ad3 2c3e 54b4 aabf 7ced 303f eb1c 583f
00000370: 04d1 833f c486 6e3e 9ba3 09bf b6e9 0dc0
00000380: e73c bf3f f812 433f c90c 6fbf 8ca5 14bf
00000390: caf8 333f 939f 743f fb0a 85bd bb81 7cbf
000003a0: 8850 5bbe 66f7 91bf e411 943e 9c64 debe
000003b0: d9bf ccbe 6674 abbe 0f7a 0b3f dd8a cb3f
000003c0: 5c0a 163f dad1 803e 2eb9 bc3e 0243 bfbc
000003d0: 370e 68bf 13b6 28bf eaa0 bcbf 99c4 a63e
000003e0: 62a8 75be 55c3 2f3c e123 d03e 9417 0fbf
000003f0: 0687 233f 43e6 83bf f593 0ec0 5701 a63f

conv3.bias f4 [32]
0.32209802 -0.107687004 0.45575222 0.5437888 0.27322474 -0.12224905 0.16918199 0.44724232
0.18309276 0.15831402 -0.23371454 -0.111463085 -0.6714769 -0.24273044 -0.39551675 -0.6597894
-0.14924747 -0.8220598 -0.044362295 -0.7553582 -0.5694634 0.15238602 0.6838797 -1.0649555
-1.1479152 0.63031113 0.87929285 0.5430176 -0.31900385 0.3524477 -0.60310924 0.08368733
00000000: 08ea a43e 018b dcbd 5b58 e93e be35 0b3f
00000010: 1de4 8b3e b65d fabd 0b3e 2d3e f2fc e43e
00000020: ab7c 3b3e 121d 223e dd52 6fbe c246 e4bd
00000030: e9e5 2bbf 548e 78be 2c81 cabe f5e7 28bf
00000040: 54d4 18be 8372 52bf 3db5 35bd 285f 41bf
00000050: 5ac8 11bf 150b 1c3e bd12 2f3f 7650 88bf
00000060: e3ee 92bf 125c 213f 5619 613f 3403 0b3f
00000070: 7954 a3be 0674 b43e 5e65 1abf 4364 ab3d

bn3.weight f4 [32]
9.404207 5.5380735 4.9030824 5.6381764 6.040732 7.102079 5.9441175 7.8694043
7.6697884 8.19472 6.1530266 7.3463244 7.409036 6.6811695 6.4033065 6.628065
6.0696583 7.755311 7.476109 8.007705 5.9748893 6.970423 6.079417 6.471736
6.7075677 6.8726883 6.802082 5.989901 6.900524 7.862134 6.493466 7.6503444
00000000: a277 1641 e637 b140 0de6 9c40 f16b b440
00000010: ad4d c140 3b44 e340 3636 be40 29d2 fb40
00000020: e86e f540 931d 0341 98e5 c440 1715 eb40
00000030: d316 ed40 24cc d540 e3e7 cc40 1c19 d440
00000040: a43a c240 822b f840 493c ef40 8f1f 0041
00000050: 4b32 bf40 b50d df40 968a c240 7618 cf40
00000060: 65a4 d640 10ed db40 a8aa d940 45ad bf40
00000070: 18d1 dc40 9a96 fb40 79ca cf40 9fcf f440

bn3.bias f4 [32]
-0.41100356 -1.22596 -2.9562085 1.7506675 -1.0429374 -1.5227216 -2.5536826 -1.9035304
-0.5957668 -3.164861 0.4263722 -0.5266051 -0.823148 -1.2074295 -0.88344043 -0.8781814
0.46521872 -0.9315846 -2.3533645 -0.0993482 0.97950405 -0.738796 -0.48711866 -0.7241819
-0.49162355 -0.11175526 -2.124791 -0.5837962 0.32005775 -0.81156707 -1.0733134 -1.6634771
00000000: 0f6f d2be 42ec 9cbf 8532 3dc0 df15 e03f
00000010: f97e 85bf 8be8 c2bf 896f 23c0 e2a6 f3bf
00000020: 2c84 18bf 158d 4ac0 754d da3e 98cf 06bf
00000030: d4b9 52bf 0d8d 9abf 2729 62bf 7fd0 60bf
00000040: 2631 ee3e 547c 6ebf 869d 16c0 1277 cbbd
00000050: c7c0 7a3f bc21 3dbf 9e67 f9be fc63 39bf
00000060: 15b6 fbbe f1df e4bd 93fc 07c0 ab73 15bf
00000070: 9cde a33e dcc2 4fbf 5562 89bf d1ec d4bf

bn3.running_mean f4 [32]
21.833138 -10.691589 -21.084398 -6.131505 -12.525074 -15.824669 -7.9204907 -14.170287
-13.68485 -1.5220344 -27.046627 -23.519033 -45.831028 -2.7645516 -13.100863 -5.842083
-35.03726 -6.6113467 -13.078604 -1.1814378 9.960725 -10.102323 -6.793585 -21.44466
-3.2543683 -31.400219 -6.657038 -19.964401 -10.107559 -9.147019 -26.227325 -19.500008
00000000: 44aa ae41 c010 2bc1 d9ac a8c1 4a35 c4c0
00000010: b466 48c1 d831 7dc1 a974 fdc0 7fb9 62c1
00000020: 25f5 5ac1 06d2 c2bf 7e5f d8c1 fb26 bcc1
00000030: f952 37c2 6aee 30c0 239d 51c1 58f2 bac0
00000040: 2726 0cc2 2790 d3c0 f641 51c1 5b39 97bf
00000050: 215f 1f41 1da3 21c1 0c65 d9c0 aa8e abc1
00000060: 9247 50c0 a633 fbc1 7506 d5c0 18b7 9fc1
00000070: 90b8 21c1 315a 12c1 90d1 d1c1 0400 9cc1

bn3.running_var f4 [32]
88.76195 32.14698 47.401855 64.68516 39.96038 61.511227 49.427773 42.228092
73.94594 72.742355 40.2208 56.30133 89.60139 58.351902 43.79371 50.6395
46.857437 43.143356 77.800476 49.97055 56.23259 67.117325 53.11252 49.31211
36.62664 71.656975 36.835743 48.4067 41.961227 46.08841 64.31645 51.277905
00000000: 1e86 b142 8296 0042 809b 3d42 cd5e 8142
00000010: 6ed7 1f42 7f0b 7642 0ab6 4542 91e9 2842
00000020: 52e4 9342 167c 9142 19e2 2042 9034 6142
00000030: e933 b342 5968 6942 c22c 2f42 d98e 4a42
00000040: 046e 3b42 cc92 2c42 d899 9b42 d8e1 4742
00000050: 2cee 6042 123c 8642 3873 5442 9a3f 4542
00000060: ae81 1242 5f50 8f42 cd57 1342 76a0 4142
00000070: 4cd8 2742 885a 3842 06a2 8042 931c 4d42

head.weight f4 [4, 512]
3.8005912 0.8897433 0.35146728 0.05943891 0.50400484 0.29579222 0.6224093 0.121271364
2.7757318 3.468762 4.903452 4.812225 4.4818683 4.299568 2.6975718 -0.80251557
-1.7432303 -0.9963383 1.2959952 -0.39513394 -0.07639308 0.8769116 -1.9182113 -2.2682002
4.1696305 -1.031558 2.8079982 1.2737607 -0.9712942 1.0538666 1.4539706 4.4445233
0.45722622 -2.5673833 0.21735969 -2.2917554 -0.57193786 0.27314782 0.07587219 -0.39663374
-0.54758245 -3.3293633 -1.509632 -2.3511448 -2.5880654 -1.3206316 -1.5308639 -2.637345
1.1713437 0.68834746 0.3521376 0.5177954 0.29839697 0.9680043 0.44410673 0.7146375
3.460797 0.32788587 1.4844459 1.1570936 3.3873274 4.8880873 2.942859 4.552878
2.8229365 2.4556682 -0.12738334 1.186835 -1.426771 2.0839696 0.734895 -0.38944098
-4.351849 0.23097731 -0.9226608 3.8054972 1.9599746 2.068512 1.8106648 6.057853
1.8727626 -1.4610794 0.64443374 1.601588 -1.0108622 -0.22222437 -0.28771195 3.9848866
3.254614 0.57785326 -0.047297362 1.5762388 3.4356477 -0.96582025 -2.7501016 6.540045
0.23978673 -2.4318264 -0.47808668 2.3069465 -3.223714 0.32875234 -0.02401089 -1.3555661
-1.5802785 0.70783085 -1.6383535 2.0118794 -1.7417718 -5.091075 -2.2748485 -3.357201
-2.8559108 1.7841933 0.8517509 -0.45187297 -1.6482882 0.26431268 -1.3841666 1.5472032
1.2355804 1.0643561 2.4270885 -1.2896724 1.0539511 1.4562767 1.8802425 -2.6868713
-0.18550186 1.243484 -0.2548188 -0.8565479 1.7381306 0.44023088 1.1856563 -0.21026385
-2.069138 1.878764 1.5397995 2.0002377 4.64818 5.148459 1.3988746 2.0906045
-2.9169579 1.0668411 0.9300115 0.71333134 0.40703383 -1.0713693 1.6616449 2.7662385
-3.9383109 -2.9418812 -2.6702769 -3.809789 -4.0128307 0.5765365 -1.5026748 -6.716496
1.3566846 0.55298346 -0.52985835 -0.27542338 0.3679541 0.78175026 -0.89639807 0.7993506
4.0097437 0.033169497 0.3593031 0.12096172 -0.14075512 -1.0365678 1.1913185 7.9170384
-1.4226667 0.42912003 0.982754 0.50678194 -0.3000253 -1.2009087 2.106947 0.3545728
-1.5036325 1.3538221 2.640125 2.5748515 2.8289182 5.477829 4.004853 8.339067
3.717999 2.166814 -0.3574276 -1.3649598 0.32639256 -1.3311871 1.002491 -2.810451
-0.933833 3.0550387 4.5284348 5.2444367 1.4474554 1.3247762 1.8641506 -0.92145336
1.4694008 0.26191804 1.3661271 1.0848727 -0.8035283 0.9704696 -1.5372308 -0.43426713
-5.019574 5.575413 3.3066216 2.584083 -0.9544512 0.8446625 -0.6694007 -4.0345664
-0.8697286 -0.20451622 -0.5092739 0.22628947 0.4972998 -0.07060258 0.40734977 -1.1246022
5.0714574 -0.8686322 0.62943166 -2.4594028 0.117281176 2.2835162 -2.2577467 1.8041309
1.7055721 -0.04125596 1.8496691 0.7694726 2.2210295 0.9174252 -0.08515204 2.612167
-4.777537 1.1159313 1.6074971 0.06107227 -1.1085918 3.0322328 0.46068943 5.1126394
00000000: e33c 7340 38c6 633f 85f3 b33e 3776 733d
00000010: 7606 013f 1472 973e 3756 1f3f 1f5d f83d
00000020: 97a5 3140 3200 5e40 14e9 9c40 bffd 9940
00000030: 776b 8f40 1096 8940 04a5 2c40 a971 4dbf
00000040: 2c22 dfbf 0710 7fbf 2ce3 a53f ff4e cabe
00000050: fa73 9cbd 477d 603f f387 f5bf 312a 11c0
00000060: 9d6d 8540 180a 84bf 3eb6 3340 970a a33f
00000070: bda6 78bf 1ae5 863f b51b ba3f 8939 8e40
00000080: 8e19 ea3e 0250 24c0 8a93 5e3e 1fac 12c0
00000090: 856a 12bf 08da 8b3e e162 9b3d 9413 cbbe
000000a0: 5d2e 0cbf 4a14 55c0 9f3b c1bf 2879 16c0
000000b0: dda2 25c0 750a a9bf 59f3 c3bf 43ca 28c0
000000c0: 97ee 953f 8a37 303f 614b b43e 3d8e 043f
000000d0: 7dc7 983e 21cf 773f f561 e33e 7cf2 363f
000000e0: b37d 5d40 a8e0 a73e 5302 be3f a51b 943f
000000f0: f9c9 5840 366b 9c40 cd57 3c40 2db1 9140
00000100: feaa 3440 ab29 1d40 c770 02be 36ea 973f
00000110: 6fa0 b6bf c25f 0540 1422 3c3f cf64 c7be
00000120: 5942 8bc0 5185 6c3e 8033 6cbf 448d 7340
00000130: 73e0 fa3f 8062 0440 ddc3 e73f efd9 c140
00000140: afb6 ef3f a604 bbbf 9cf9 243f d600 cd3f
00000150: ef63 81bf c98e 63be fb4e 93be 6208 7f40
00000160: 994b 5040 31ee 133f e1ba 41bd 31c2 c93f
00000170: a7e1 5b40 ff3f 77bf aa01 30c0 0c48 d140
00000180: a78a 753e 0ba3 1bc0 c7c7 f4be 03a5 1340
00000190: 5551 4ec0 3a52 a83e 7cb2 c4bc 3183 adbf
000001a0: 9146 cabf 6734 353f 91b5 d1bf a2c2 0040
000001b0: 61f2 debf 16ea a2c0 1e97 11c0 62dc 56c0
000001c0: 3ec7 36c0 7260 e43f 590c 5a3f e55b e7be
000001d0: 1cfb d2bf fe53 873e 5f2c b1bf c10a c63f
000001e0: 8027 9e3f d23c 883f 6b55 1b40 fc13 a5bf
000001f0: dfe7 863f 4667 ba3f c9ab f03f b3f5 2bc0
00000200: 33f4 3dbe 7c2a 9f3f 9c77 82be b946 5bbf
00000210: 107b de3f f165 e13e 96c3 973f 684f 57be
00000220: c26c 04c0 577b f03f 2618 c53f e503 0040
00000230: e4bd 9440 2dc0 a440 530e b33f 77cc 0540
00000240: 70af 3ac0 408e 883f 3c15 6e3f e29c 363f
00000250: bd66 d03e a122 89bf c8b0 d43f 0d0a 3140
00000260: 490d 7cc0 c847 3cc0 d1e5 2ac0 95d3 73c0
00000270: 1c69 80c0 e597 133f a657 c0bf 89ed d6c0
00000280: d7a7 ad3f 5390 0d3f cca4 07bf 4b04 8dbe
00000290: 7b64 bc3e c920 483f 587a 65bf 3ea2 4c3f
000002a0: d24f 8040 bddc 073d 93f6 b73e c7ba f73d
000002b0: 1c22 10be 41ae 84bf 207d 983f 6158 fd40
000002c0: f119 b6bf 9fb5 db3e c495 7b3f 76bc 013f
000002d0: eb9c 99be 60b7 99bf 38d8 0640 918a b53e
000002e0: 0877 c0bf 0b4a ad3f cff7 2840 5eca 2440
000002f0: ff0c 3540 604a af40 c127 8040 d26c 0541
00000300: b2f3 6d40 15ad 0a40 c000 b7be 01b7 aebf
00000310: ed1c a73e 5764 aabf a051 803f 6ede 33c0
00000320: ae0f 6fbf c185 4340 f0e8 9040 6dd2 a740
00000330: 3846 b93f 4492 a93f 7d9c ee3f 5ee4 6bbf
00000340: 5315 bc3f 1f1a 863e 41dd ae3f 1cdd 8a3f
00000350: 08b4 4dbf b270 783f fbc3 c4bf 4358 debe
00000360: 5aa0 a0c0 c969 b240 b09f 5340 9e61 2540
00000370: ea56 74bf cd3b 583f d85d 2bbf 2b1b 81c0
00000380: 89a6 5ebf b36c 51be c65f 02bf 6db8 673e
00000390: 149e fe3e 1698 90bd 2690 d03e f7f2 8fbf
000003a0: 6149 a240 ae5e 5ebf 6f22 213f db66 1dc0
000003b0: 1d31 f03d 2125 1240 ec7e 10c0 c3ed e63f
000003c0: 3050 da3f 02fc 28bd f5c1 ec3f 28fc 443f
000003d0: 5925 0e40 61dc 6a3f 3164 aebd be2d 2740
000003e0: 95e1 98c0 d6d6 8e3f 77c2 cd3f eb26 7a3d
000003f0: 56e6 8dbf 1a10 4240 7cdf eb3e be9a a340

head.bias f4 [4]
1.4488852 2.2915819 1.5258313 2.5689971
00000000: 1275 b93f 47a9 1240 714e c33f 736a 2440
