code/models/CNN_01.pt (torch, 174432 bytes, 20 tensors)

conv1.weight f4 [16, 3, 5, 5]
00000000: f1ac 9ebc 0f46 d03e 2888 253e 724b 58bd
00000010: 237c d13e 41a2 203f 62a7 c2be 6e65 003f
00000020: 6054 983e 7517 6fbc 6b9f e43d 45b0 043f
00000030: 2426 22be 7dd4 c1be cece 353f a981 9dbe
00000040: f01d f7be 4f49 ff3e 6f7c 863f b1df 92bf
00000050: 96e9 9ebe acc7 d63e 19a5 2abf 31fa 453e
00000060: ab50 533f 0b70 363e 705e 633f 4ab3 a43e
00000070: 35bc 1cbe 8a75 fe3e b3bd de3e 3ea6 66be
00000080: 5ac4 043f ce48 863e a4ac 113d 12a9 743d
00000090: 5222 753e de95 9bbe a347 e8be 8c12 2e3f
000000a0: 2be2 14be 9897 00bf cd26 073f d843 853f
000000b0: 4f0a 98bf d705 93be f57c a23e 3d83 1bbf
000000c0: 6db4 d23c 09d5 833f a183 ed3e d5e9 1f3f
000000d0: 2e95 853e 2001 c1be 341c 933e ce0e 013f
000000e0: 4498 25bf ea30 2f3f 3abc 103e a073 5bbe
000000f0: 2d8c 713e a75b a8bd 7dee 17be 54f8 04bf
00000100: e948 303f bf9a 27bd d449 01bf bf5e e73e
00000110: 8601 773f 0929 7fbf 983e 38be 143a f23e
00000120: d6d1 26bf 6e99 e73c 2a40 613f 8048 01be
00000130: e76f 5e3e 44f2 70be a3d7 10bf 883e 25bd
00000140: 5a38 8a3e 92f9 523e 1a38 023e 6c6a 553f
00000150: dd9c 4a3e e915 4cbd 04af 46bd 38b7 0cbf
00000160: d8cf 513e 3dd5 dbbd 0361 42bf 6c25 4f3f
00000170: e425 8e3e 132f 8bbd 75ad f33c 3d1e 2b3e
00000180: 5d74 12be 6b7f cdbf 2ce6 d5bf 1392 0d3f
00000190: 25a3 9f3e 538d 1d3f 74a3 85be 628a 8dbf
000001a0: 7f34 f4bd 60b8 3f3e 9512 3e3f a962 1b3e
000001b0: 5e3d 883f 431b 8a3e fed4 8abe ac11 9bbe
000001c0: 63ad 1bbf 51ab db3d 555f 5cbe 7b96 11bf
000001d0: 8f0d 883f a639 0d3f 823e c73c e9df be3d
000001e0: ef2b 8d3e facd 23be 846a a8bf c7b7 91bf
000001f0: 61d7 c23e 3848 2dbe 2e71 023f 5254 86be
00000200: aeae 2dbf eba7 063d fc73 a0be 99df b03e
00000210: 5d0f 963e 30f6 b53f 2d1d b43e 3611 03bf
00000220: 33c4 5ebe 149a 13bf 90fc 5dbb 27c5 f9bd
00000230: feaf 66bf e0ec 743f 4849 103f 8ac7 adbe
00000240: 8782 433e 05a1 c53e 79fe 8dbe e87d bdbf
00000250: e389 afbf 0e4b 3d3e 9503 863e c3c4 d1bd
00000260: a6ab 03be 153a 553e aa32 5d3d 20eb d6be
00000270: d927 203e e07a bf3e 8d6a 653e a894 f9be
00000280: a4cd bb3e 335c f23e b1e9 eb3d b50a e3be
00000290: a374 fc3e 9a1d 67bf b236 163e 4d35 103d
000002a0: 700b 31bf a0d6 973e 5f2b 913f a4f9 603e
000002b0: 7ad0 b0bd 0b07 e03f 5c67 f2bd 2793 a43e
000002c0: ad4a b9be 5e0c af3d 0b27 9c3f 62d9 c93e
000002d0: b593 a3be 024e 1cbe 6890 943e af4b bb3e
000002e0: 2043 8dbe e717 143f fa97 153f e130 8f3d
000002f0: e731 ffbe 3de5 d03e 79ee 51bf 7009 b63d
00000300: ba7d dfbc 8fed 16bf 32f9 b53e 3142 9a3f
00000310: aa4b 9c3e 14b8 04bf 251e db3f 6855 6fbd
00000320: b08f 2f3f aaf9 c5be dbca 12be eea1 613e
00000330: b87d 653e 1c9c 10be 3b18 1bbf 13cb 0abe
00000340: 19a5 553e a933 bfbe dba7 913f b695 d73e
00000350: a193 19bd 46fa 21bf 7d49 973e c1cd 27bf
00000360: c2e4 bb3d e5eb 14be f407 3bbf d260 883e
00000370: af00 a73f 5843 2a3e e8c8 e8be db3e c23f
00000380: ddf3 ddbd 0f51 b8be 1be1 84bf ad6a 2fbf
00000390: 6479 1bbf 63d9 72bf 8d8f c6be 53bd 9cbe
000003a0: 915c 22be 27f4 f43e db5d b4be 70a7 47bf
000003b0: 32af 2f3e 08c9 53bf a8f4 a3be d385 a33e
000003c0: cc0a f03e 37b6 b2bd b282 913d a221 583f
000003d0: dc5c d4be 04f3 f8bc 6057 733f c386 293f
000003e0: f639 66bf 041f 883f 078f ec3e 02f2 923e
000003f0: 1978 423d 92d1 dbbe 576d 92be 1c90 743e
-0.019369574 0.4067845 0.1616522 -0.052806325 0.4091502 0.6274758 -0.38018328 0.5015477
0.29751873 -0.014592995 0.11163219 0.51831466 -0.15834862 -0.37857428 0.71018684 -0.30762985
-0.48265028 0.49860618 1.0506724 -1.1474515 -0.31037587 0.41949213 -0.6665817 0.19333722
0.82544965 0.17816179 0.88815975 0.32168037 -0.1530617 0.4969905 0.43504104 -0.22524354
0.5186211 0.2622742 0.035565034 0.05973155 0.23938873 -0.30387777 -0.45367154 0.6799705
-0.14539401 -0.50231314 0.5279358 1.0411329 -1.1878146 -0.28715393 0.3173596 -0.6074713
0.0257208 1.0299388 0.46389487 0.62466174 0.26090378 -0.3769617 0.28732455 0.50413215
-0.64685464 0.6843401 0.14134303 -0.21430826 0.23588629 -0.08220606 -0.1483707 -0.5194142
0.6886125 -0.04091906 -0.5050328 0.45189473 0.964867 -0.9967199 -0.17992628 0.47309935
-0.65163934 0.028271403 0.8798853 -0.12625313 0.21722375 -0.23529917 -0.56579036 -0.040342838
0.26996118 0.20603016 0.12716714 0.8336551 0.19786401 -0.049825583 -0.04850675 -0.5496707
0.20489442 -0.10734031 -0.7592928 0.80916476 0.27763283 -0.06796088 0.029745797 0.16710754
-0.14302202 -1.605451 -1.6710868 0.55301017 0.31179157 0.6154377 -0.26101267 -1.1057856
-0.11924075 0.18722677 0.74247104 0.15174355 1.0643728 0.26973924 -0.27115625 -0.3028692
-0.6081144 0.107260354 -0.21520741 -0.5687024 1.0629138 0.5516609 0.024321798 0.09320051
0.2757258 -0.15996543 -1.3157506 -1.1384209 0.38054946 -0.1692208 0.5095395 -0.26236206
-0.67844665 0.032874983 -0.3133849 0.3454559 0.29308596 1.4215755 0.3517851 -0.51198137
-0.21754532 -0.5765698 -0.0033872463 -0.12195807 -0.9011229 0.9567394 0.5636182 -0.339413
0.19092761 0.3859941 -0.2773321 -1.4804049 -1.3713955 0.18485662 0.26174608 -0.102426074
-0.12858447 0.20822938 0.054003395 -0.4197626 0.156402 0.37398434 0.22403927 -0.48746228
0.3668033 0.47335967 0.115191825 -0.44344106 0.49307737 -0.90279543 0.14669302 0.03520708
-0.6915808 0.29655933 1.1341361 0.2197023 -0.08633514 1.7502149 -0.118361205 0.32143518
-0.36189786 0.08547281 1.2199415 0.39423662 -0.3194863 -0.15264133 0.29016423 0.3658118
-0.27590275 0.5784897 0.5843502 0.06991745 -0.4984276 0.40799895 -0.82004505 0.08888519
-0.02728163 -0.58956236 0.35541683 1.205145 0.30526477 -0.5184338 1.7118574 -0.05843106
0.68578625 -0.3866704 -0.14335196 0.22034428 0.22411239 -0.14122051 -0.6058385 -0.13554029
0.20863761 -0.373441 1.137935 0.42106408 -0.037494306 -0.6327251 0.29548255 -0.6554833
0.091744915 -0.14543112 -0.7305901 0.26636368 1.3047084 0.16627252 -0.4546578 1.5175432
-0.10837529 -0.35999343 -1.0381197 -0.6852215 -0.607321 -0.94862956 -0.38781396 -0.30613193
-0.15855624 0.47842523 -0.35227856 -0.77989864 0.17156675 -0.82728624 -0.32022595 0.31938037
0.46883237 -0.08726161 0.07105006 0.8442632 -0.41477096 -0.030389316 0.950552 0.66221255
-0.8993219 1.0634465 0.4620287 0.28700262 0.047477815 -0.42933327 -0.28599045 0.23883098

conv1.bias f4 [16]
00000000: 32ed 7e3f 8830 0ebf ab6a cabe b7a7 d3bf
00000010: c9e9 9a3f b5ce a03d caf3 cebe 5e25 1d3f
00000020: e957 03be f71a 37be d597 30be d336 d8be
00000030: 3892 2b3e cbe9 19bf b335 023e 6c86 39bf
0.9958068 -0.555428 -0.39534506 -1.6535558 1.2102596 0.07851926 -0.4042037 0.6138514
-0.12826504 -0.1788138 -0.1724542 -0.42229328 0.16754997 -0.60122365 0.12715797 -0.72470737

bn1.weight f4 [16]
00000000: 1fce 933f a2a3 453f c2f4 593f 6907 533f
00000010: 65d7 b93f 78fd e03f 4989 8b3f 252c aa3f
00000020: 92a1 b93f b53d c63f 27b3 8a3f a7df 823f
00000030: d703 483f 4525 603f 23a7 ae3f d8c9 993f
1.1547278 0.7720281 0.85139096 0.8243318 1.4518858 1.7577353 1.0901271 1.3294722
1.4502432 1.5487581 1.0835923 1.0224503 0.7813086 0.8755687 1.3644756 1.2014723

bn1.bias f4 [16]
00000000: a36c 5fbc 7230 8abb 6e8e 933d ed0a 803f
00000010: 5355 1bbc bae2 db3d 85f8 103b d7ee a3bf
00000020: 658d cfbf 51dc bc3f 3e96 dd3e 837b 4a3f
00000030: 1868 d23e 5925 1ebe 5d0c 203f 55f4 053f
-0.013636741 -0.004217201 0.07204901 1.0003334 -0.009480792 0.10736604 0.0022120785 -1.2807263
-1.6215025 1.4754735 0.43278688 0.79094714 0.41095042 -0.15443935 0.62518865 0.52325946

bn1.running_mean f4 [16]
00000000: 3cd0 7e3f 434c 0ebf e8ce c9be c56d d3bf
00000010: f01b 9b3f a4af 9f3d c467 cfbe 5f55 1d3f
00000020: f1e1 02be 4019 39be e42e 32be 0b57 d8be
00000030: 6cdc 2b3e 4501 1abf 07b0 013e fbed 39bf
0.9953649 -0.55585116 -0.3941567 -1.6517874 1.2117901 0.07797173 -0.40508854 0.6145839
-0.12781502 -0.18076038 -0.174007 -0.4225391 0.16783303 -0.6015819 0.12664805 -0.72628754

bn1.running_var f4 [16]
00000000: 851c f03b dcb8 5f3c 1c2c df3b 58db da3b
00000010: c94b a63c 6bcf 053d fd96 d93b a380 733c
00000020: 35bd 283c 9c81 6e3d 74a1 013c fd0e c03b
00000030: 83e3 863b c94d b23b c9e8 e63c b1e2 053d
0.0073276185 0.013654914 0.006810678 0.00667898 0.020299809 0.032668512 0.0066403137 0.014862212
0.010299017 0.058229074 0.007912029 0.0058611617 0.004116477 0.0054414016 0.028187172 0.032686893

conv2.weight f4 [32, 16, 5, 5]
00000000: f6da 28bf 2c7c 17bf 7d39 8abe e428 c43e
00000010: 6999 10bf d8ec 743f 26d6 2fbd 4a64 733e
00000020: 5727 733f 30e0 3e3e 2b9f 7ebf c2ee f0be
00000030: 1aee ce3e 4f66 da3e 9743 4dbc 4910 75be
00000040: 9f08 103e e554 00bf 8d1c e0be eac3 00be
00000050: 9e19 e1be 6f9e 9d3e 5ae3 6dbe 4880 15bf
00000060: 7b5a c93e 574b d6bd 0d26 363e b6c0 1ebe
00000070: 1ce7 2cbf 2907 36be 0d6a 3ebf e0d5 6dbf
00000080: 3c84 243f 9a86 cc3d a15b debf 3a7d cc3e
00000090: 8493 a5bd 84e3 dbbe 1e9f 55be e420 03bf
000000a0: 98e1 c13e a5e7 fe3e cd4d f2be 3fd4 aa3c
000000b0: 1c8c 5ebe acdd f43e 12a8 5dbb a8e7 8bbf
000000c0: a998 933e 9f70 dbbf dfa2 33bf 3628 893e
000000d0: e9b8 2abf 2c8b 8a3c 4da1 3abf 0350 06bd
000000e0: 2538 2abe d30d b73d 1d8d 0ec0 bc8c bb3e
000000f0: c780 683e 3e09 a5be c144 f73c db37 53be
00000100: 9911 13bf 9c05 463f ee41 553f 60dd 933e
00000110: 1301 e8bf b61c 08bf 623a 323e 04cb 11bf
00000120: a17f 6e3f 2fa4 edbe d3f3 803c 057f 373f
00000130: 3357 c3be 2be4 0f3f 58ef cd3e d6c0 09be
00000140: 3bca ed3d a412 18bf bbff 033f 674c 1bbe
00000150: 4d07 36be a1f4 b93e 8df0 153f 59d1 8bbf
00000160: be85 35bf bba6 23be e943 72bf d7cf 7fbd
00000170: f08f 8cbe 1bcd 473f 8b46 bd3f deb2 263f
00000180: d4c5 75be 5706 9dbe 21ad 14bf 5c36 3e3e
00000190: ec4d a73e 3304 8ebd 8ad0 25be 2464 fc3e
000001a0: 3883 7ebe ab42 423f d77b 74be 2c79 81bf
000001b0: 53d3 d73e 28a4 e4bc 7ed1 f0be f2a0 c73d
000001c0: 48de d8be fa25 c5be c574 b83e 45c9 47be
000001d0: 0d74 88bf c60c 803e 7549 bcbe a545 5ebe
000001e0: f805 3a3d 803a 22bf a259 d23e 4b45 ecbd
000001f0: 3623 43bf 007b 993e 539a 833e 3715 ffbe
00000200: c33d 0ebf e026 f5bd 05f6 8bbf fa4c 173d
00000210: 4779 29bf 4893 0fbf 9121 dfbe fd24 bfbe
00000220: f1ca 1f3f f921 e43c 7422 e3be a189 2bbf
00000230: 0ad4 39bf 3a2e 5b3e 1031 593f b906 903e
00000240: 3cbb f83e da3b ec3e 4687 1d3d b0f8 02bf
00000250: fd2e b83c 6356 36bf 94f7 fc3d 3ee2 7b3c
00000260: 9be2 403f d5db f6be ed73 1abf eee5 a33e
00000270: fab2 2ebf 8a99 88bf 0b08 adbe 3b45 fcbe
00000280: 0740 1abe 4338 333e ba76 6ebd 51f7 82bf
00000290: 1f9e 70be a663 b3bd 0fb2 2c3e b920 45be
000002a0: 7ce2 d23e 2756 94be ca51 5b3f 9275 1ebe
000002b0: 1b48 a53d e5ec 34bd 3aa4 133f bdee e2bf
000002c0: d010 d9be 9cf0 75bf 0766 4e3e f8c8 32bf
000002d0: fa4c 36be 787a 0b3f e67e 55bf 30d9 0f3f
000002e0: c1c9 f83e 05ef 15bf f97f ddbf 3739 03bf
000002f0: dbb2 1f3f 2b56 15bf b901 373e 72e8 8f3d
00000300: 5291 333f dd38 163e 4ac0 21bf 81ce 40bf
00000310: 8f36 2dbf c467 6ebf a4b4 733e 789b 0d3f
00000320: d13c 183e b3df f1be 11d2 063f f7c0 873e
00000330: 173f 24bd 5a1a d73d d0e0 f33c 84a6 abbd
00000340: 1e76 8fbd 62af 123f 656d 003f 1921 afbf
00000350: 59db b2bd 5646 dcbe 6545 bbbf 0b5f 11be
00000360: 279c cabe 06cf e9be a0e0 8abe d2ab 76be
00000370: 94ae 96be c5d1 80bf 2d27 dcbd 5073 063e
00000380: eff1 a6be 50a2 3ebe fa66 213e d072 713f
00000390: dc07 99be c988 f1bd aa95 0f3e 508c 823e
000003a0: d511 9f3e da79 e6be 1bf7 383f c4ee debd
000003b0: b1d8 8a3b 3831 b83d 74a5 6f3c fcc8 27bf
000003c0: b651 e6be 3651 b93e 73ea 42be 751f df3e
000003d0: 3107 48bf efb7 213f 53cf fc3d 239e 3cbf
000003e0: 9a75 2abf 83e8 0dbf 2309 0bc0 042f 5d3d
000003f0: 7f63 433e b4fa 813e 444c 313f de49 7abf
-0.6595911 -0.59173846 -0.26996985 0.38312447 -0.56484085 0.95673895 -0.042928837 0.23768726
0.949819 0.18640208 -0.9946162 -0.47057158 0.40416032 0.4265618 -0.012528322 -0.23931994
0.14065789 -0.5012954 -0.43771783 -0.12574735 -0.43964857 0.30784938 -0.23231259 -0.58398867
0.39326844 -0.10463589 0.17787953 -0.15503201 -0.67540145 -0.17776169 -0.7438057 -0.9290447
0.64264274 0.09986611 -1.7371713 0.3993929 -0.08084777 -0.42947018 -0.2086148 -0.5122206
0.37867427 0.49786106 -0.47324982 0.02085316 -0.21733135 0.47825372 -0.0033822102 -1.0930071
0.28827408 -1.7143744 -0.70170397 0.2678849 -0.666884 0.016912065 -0.72902375 -0.03279115
-0.1662298 0.08938184 -2.2273629 0.3663081 0.22705375 -0.32233614 0.030184152 -0.20626776
-0.57448727 0.7735231 0.83303726 0.28879833 -1.8125328 -0.5316881 0.17405084 -0.569504
0.93163496 -0.46414325 0.015741264 0.7167819 -0.38152465 0.5620753 0.40221667 -0.13452467
0.11610838 -0.59403443 0.5156209 -0.15165864 -0.17776223 0.3631945 0.58570176 -1.0923263
-0.709072 -0.15981571 -0.9463487 -0.06245407 -0.27453566 0.7804734 1.4787153 0.6511668
-0.24001247 -0.306689 -0.58076674 0.18575424 0.32676637 -0.06934395 -0.16192833 0.4929515
-0.24854743 0.7588298 -0.23875366 -1.0115104 0.42153415 -0.027910307 -0.4703483 0.09747495
-0.42357087 -0.38505536 0.36026588 -0.19510372 -1.0660416 0.25009745 -0.36774793 -0.21706255
0.04541585 -0.63370514 0.4108401 -0.11536654 -0.762256 0.29976654 0.25703678 -0.49820873
-0.5556299 -0.119703054 -1.0934454 0.036938645 -0.6620068 -0.5608411 -0.43580297 -0.37332907
0.6241904 0.02784823 -0.44362223 -0.6700688 -0.7258917 0.21404353 0.8484049 0.2813013
0.48580348 0.46139413 0.038459085 -0.51160717 0.022483343 -0.71225566 0.12351909 0.015373765
0.7534577 -0.48214594 -0.6033314 0.3201136 -0.68241847 -1.0671856 -0.337952 -0.4927157
-0.15063487 0.17501931 -0.058218695 -1.0231725 -0.23497818 -0.08759241 0.16864799 -0.19250764
0.4118842 -0.2897198 0.85671675 -0.15474537 0.08070394 -0.044171233 0.57672465 -1.7729107
-0.4239564 -0.96070266 0.20156108 -0.69837904 -0.17802802 0.5448375 -0.83396757 0.56190777
0.48591426 -0.5856784 -1.7304679 -0.5125918 0.62382287 -0.58334607 0.17871751 0.07026757
0.70143616 0.14670129 -0.63184035 -0.753151 -0.67661375 -0.93127084 0.23799378 0.5531535
0.1486695 -0.4724098 0.52664286 0.26514408 -0.04009923 0.10503073 0.029770285 -0.0838137
-0.07004951 0.5729886 0.5016692 -1.3681976 -0.087332435 -0.43022412 -1.4630553 -0.14196412
-0.3957226 -0.4566576 -0.271245 -0.24088982 -0.29430068 -1.0064017 -0.1074966 0.13129926
-0.32606456 -0.18616605 0.15761939 0.94315815 -0.2988881 -0.11793668 0.14021936 0.25497675
0.31068292 -0.4501484 0.72252053 -0.10885385 0.0042372574 0.08993763 0.014626849 -0.6554105
-0.44984215 0.36194772 -0.19034748 0.43578687 -0.78135973 0.63171285 0.123442315 -0.736788
-0.66585696 -0.5543291 -2.1724327 0.053999916 0.19080923 0.25386584 0.69257 -0.9776896

conv2.bias f4 [32]
00000000: 52d4 4d3e a70e cdbe 04af 263e 2ffd 96be
00000010: cdfa fb3e b28a 943e 2128 31be 34f4 1ebe
00000020: 64eb cb3e 10b9 86be 3755 b23e dff2 833d
00000030: 4ddb 3ebe 7ff1 3a3e 2c0f a6bf b6b2 1abd
00000040: f11b 2d3e c4f1 ef3e 822c 09bf 2c01 123e
00000050: 5118 4b3d 7e95 383e db7a 2abe cac2 0abf
00000060: 8e0a e5be d691 9b3e 9b6f c33e b5f4 f33e
00000070: 2c16 27bf f12a 503c 5165 dbbe fd6f 87bc
0.20100525 -0.4005024 0.162777 -0.2949004 0.49214783 0.29012066 -0.17300464 -0.15522844
0.39828026 -0.26313066 0.3483064 0.06442808 -0.18638344 0.18256186 -1.297338 -0.03776809
0.1690519 0.4686414 -0.5358354 0.1425826 0.049583737 0.18025777 -0.16648428 -0.54203475
-0.44734615 0.30384701 0.38171086 0.47647634 -0.65268207 0.0127055505 -0.42850736 -0.016532892

bn2.weight f4 [32]
00000000: c5ef c53f 50ae cc3f 05ea f83f 5ec8 2440
00000010: 9773 b13f fe82 8a3f 264b bb3f 16f4 d83e
00000020: 9aa7 1f40 8800 9d3f f1d0 b83f d346 bf3f
00000030: 82c5 a13f 5979 533f cc7a 8a3f fee7 6d3f
00000040: 724d a53f c90f 8a3f ac80 b53f 6c7d 1b40
00000050: 23b3 b13f 90a5 e93f 83f7 bc3f cecd c03f
00000060: f872 8e3f c9e8 0740 aff0 d33f c3ea 073f
00000070: b090 893f a9a0 7d3f 56a2 e93f dc60 e13e
1.5463797 1.5990696 1.9446417 2.5747294 1.38634 1.0821226 1.4632308 0.42373723
2.4946046 1.2265787 1.4438764 1.4943489 1.26384 0.82607037 1.0818725 0.92932117
1.291426 1.0786067 1.4179893 2.4295301 1.3882793 1.8253651 1.4763035 1.5062807
1.1128836 2.123583 1.6557826 0.5309259 1.074728 0.9907327 1.8252666 0.4401921

bn2.bias f4 [32]
00000000: 5350 133e bb3c d73e 43d0 233e 4cbe e13e
00000010: be55 473e 5a1c 633d 361a 7ebe e819 3cbf
00000020: 29fe d2be 6201 063f 588e f5be 631b c23d
00000030: 8edb 0dbf a7db e2be d25b 1ebe 5843 973d
00000040: 883d 523e 2aac f53d ee50 a43e 949c 793f
00000050: beeb 9e3d b2ff afbe 7ee2 fdbd e5de 353f
00000060: 0db7 9bbe 64c9 393f 33ed 17be 5133 96bf
00000070: b247 973e c26f a53d 2025 9a3e b189 33bf
0.1438611 0.4203852 0.15997414 0.44090497 0.19466302 0.05544696 -0.24814686 -0.7347703
-0.41209534 0.5234586 -0.47960162 0.0947788 -0.5541314 -0.44308206 -0.15464714 0.07385892
0.20531285 0.11995728 0.32092994 0.97504544 0.07759808 -0.34374768 -0.123967156 0.71043235
-0.30413094 0.7257292 -0.14836578 -1.173441 0.29546887 0.08077957 0.3010645 -0.70131975

bn2.running_mean f4 [32]
00000000: 844a 8ac1 d546 0fc2 3bb9 04c2 53ba 01c2
00000010: 21f1 bac1 ec05 afc1 f5be 53c1 a7a8 a5c0
00000020: d1c2 d7c1 0b10 aac1 f46a 01c2 ca72 b3c1
00000030: 2316 a7c1 7e52 9ec1 d240 4bc1 11fe 79c1
00000040: 4f20 01c2 756f e7c1 0f5e d3c1 05f8 abc1
00000050: b499 bbc1 ae42 cbc1 9b1f a4c1 c340 d1c0
00000060: de3d 23c1 1c76 17c2 a4e8 03c2 1d8b a041
00000070: 0fa0 a9c1 83ce 93c1 f7d6 82c1 72b0 3c41
-17.286385 -35.81917 -33.18089 -32.431957 -23.367739 -21.877892 -13.23412 -5.1768374
-26.970125 -21.257833 -32.354446 -22.43105 -20.885809 -19.79028 -12.703325 -15.624528
-32.28155 -28.929422 -26.420927 -21.496103 -23.45005 -25.407558 -20.515432 -6.5391555
-10.202604 -37.86534 -32.97719 20.067926 -21.203154 -18.475836 -16.354963 11.793077

bn2.running_var f4 [32]
00000000: 6ced 8442 812c c342 230e 8a42 f7f9 ea42
00000010: ba72 6842 58f3 1142 7266 2e42 0ac3 c041
00000020: 219c c842 2b21 8942 d449 7642 ae7d 3342
00000030: 749f 0d42 d5b2 c641 2082 4042 71e7 2f42
00000040: 6884 4d42 5654 1c42 fc65 8542 af9e c742
00000050: 94ca 7142 eafe 5142 238b 7342 6044 0343
00000060: 43c4 d041 07f5 1f43 2a9f 4242 f6fb d441
00000070: f596 1742 5447 3142 57b7 b542 a880 a441
66.463715 97.58692 69.02761 117.48821 58.112038 36.48764 43.600044 24.095234
100.30494 68.56478 61.572098 44.872734 35.405716 24.83732 48.127075 43.976017
51.379303 39.08236 66.69919 99.80993 60.44783 52.49894 60.885876 131.26709
26.09583 159.95714 48.655434 26.623028 37.89742 44.319656 90.858086 20.56282

conv3.weight f4 [32, 32, 5, 5]
00000000: 9248 aebf ab4f 1ebf 0277 0bbf ebe8 dbbf
00000010: bebb 42bf bf75 313e 78cb 1f3f 5bdc 29be
00000020: 7b8a 5dbe 2383 babe e2df 003f f18f f1bd
00000030: 0bbb 66be 0f3b 94bf ce8d 86be 487f e13e
00000040: a73a 2bbf cccb bb3e abf9 093f 7d79 e7be
00000050: 06ca 2b3f f523 663f 5fbd 63bf dc3f 553f
00000060: d766 febd 6ffc ba3e efb0 debd b9be 163e
00000070: 6883 613f af58 dd3e 4e68 8c3e b8f6 41bd
00000080: 1287 393f 70d0 38bd 6c19 443f 6940 973e
00000090: f847 55bf f1d4 4cbc d78c 0e3f 56d2 7c3e
000000a0: d935 b6bd 27d2 2dbf ee50 443e fa7c 9cbd
000000b0: cdba 4e3e fcfb 7cbf e7de 34bf 4918 2ebf
000000c0: acb7 a2bf ad51 0c3d b3dc 36bc 6052 203e
000000d0: 299e 99bd 772f 2abf 2032 7ebd 1dca b6bd
000000e0: 5476 b3bf 020c d73e abec 393f 0bf7 463f
000000f0: 5be7 113f 7161 ffbd c7d7 1dbe bdae d4bd
00000100: 5416 8b3e 5d38 62be aa1a 363f 29b3 95bd
00000110: a1cb e4ba 5262 91be 831d e4be aca0 e33e
00000120: d61d c6be 70b4 ec3d eab1 433f 38b7 3dbe
00000130: 0ebc a53e 46bc 443e 92a7 23bf 7200 a1bb
00000140: 1297 27bf 712f bf3d e250 db3e fdef cd3e
00000150: 7dfd b2bd a179 893e 1e71 793f b226 2abd
00000160: 36f5 b53e 5a02 743e b6da 60bf 0cd9 0f3e
00000170: 2488 943f c40b f63e b202 8c3e 8427 46bd
00000180: 993c 943e 819c a13e 3b7b 403f 4e1f 0bbf
00000190: d38c 8b3f 1fcf b43e 2a42 9e3d fa17 38bf
000001a0: d9aa 11bf 27f8 69bf 5464 7a3d 909f 833c
000001b0: 2f65 59bf 8748 27bf 8c9e 3cbe 2c67 02bf
000001c0: 4712 143f 6d3f 103e 6351 dc3e 11d0 a2be
000001d0: f548 a63e 26ee 36bf 704e 713d 79ec c2be
000001e0: 0597 bdbe 3c38 9bbf 2e38 7d3e 7bd6 90bb
000001f0: 2493 063e 7d63 a23b c664 f5bd c987 02bf
00000200: ad08 053f 8ba5 603d 1587 f8be fad0 8b3e
00000210: 1c90 313f 47fe 983f 0c08 063f aee9 083e
00000220: 7e8c dc3e 7d55 6c3d 0bd1 00bf 1219 abbd
00000230: cf62 20bf 79d1 303f e222 40bf fc5c 9c3d
00000240: 9e4e f03e 2792 dfbe 9be2 95be f91f b6be
00000250: c171 a4bf c8ad 903e 9d68 943e 8e17 a2bf
00000260: f9fd bbbe f13a 253e dc82 6abf f4bd 2e3e
00000270: 7311 6cbf 0075 a4be 613b da3e cf78 19bf
00000280: 928e 013e e31a 70be 7a7b 26bf e5f0 5c3d
00000290: fdac 163f dc07 d5bd 9f1d 813e d823 2d3f
000002a0: e88e ebbd 83e9 58bf 2adc 50bf 7482 bfbf
000002b0: c305 77bf 2398 03c0 5784 53bf a433 ec3e
000002c0: fff7 6ebf 9807 93be 3a57 1abe d134 3dbf
000002d0: 79db 583d d288 7a3e 6a8e 99be c5f3 8bbd
000002e0: 2435 5ebf 8102 9bbe 728a 6cbd ee27 933c
000002f0: 990d 25bd 8757 d53e 30d3 aabe 1517 55bf
00000300: 651f 80be a28b 06be 957e e8be d701 1dbe
00000310: 0666 dcbe 2ee0 483f 1b66 97bf 58f5 4dbf
00000320: 9af4 26bf 9edb 07bf 676a 8a3e bfcf 4c3f
00000330: 619f 803f 1d27 8ebf 4a13 f7be eaac cdbf
00000340: f940 b7bd 4ee3 b43e 4dbe 32be 774c 473f
00000350: 36bb 8c3e 9fff 0ebe 3c88 c3be 54dd 8c3c
00000360: b461 a5bf 55e7 773e 6614 803f b9f5 3dbf
00000370: d39a b6be 5bac c3be 9e82 0b3e e12c 9dbf
00000380: 80b4 3d3f 265e 9e3e 402e 053f 5ca3 ebbd
00000390: 535e 9bbe fc71 6ebe fc3b 09be 245b 26be
000003a0: 2c7c 613f 4f64 0f3e cdf5 47bf 4c06 803e
000003b0: 1e22 b03b d784 703f 279c 64be 52e5 cabe
000003c0: c0db 1a3e d71c 9f3e 1aa8 583f 2e00 853e
000003d0: 5870 ca3e 5978 043f 4073 53bd c393 533d
000003e0: f764 e4bd df0e d73e 6eae 47bf 9b55 353f
000003f0: 8b24 15be b743 d7be 1482 dfbd 31e3 2a3e
-1.3615897 -0.61840314 -0.54478467 -1.7180456 -0.7606772 0.17330073 0.62419844 -0.16587965
-0.21634857 -0.36428174 0.5034162 -0.11795033 -0.22532289 -1.1580523 -0.26280063 0.4404242
-0.6688637 0.36678922 0.5389659 -0.45209876 0.6710514 0.89898616 -0.8896083 0.83300567
-0.12421959 0.36520717 -0.10873591 0.14721192 0.88091135 0.43231723 0.27423328 -0.04735443
0.72471726 -0.045120656 0.7660129 0.2954133 -0.8331294 -0.012501941 0.55683655 0.24689612
-0.088969894 -0.6789879 0.19171497 -0.07641025 0.20188446 -0.98822 -0.7065262 -0.68005806
-1.2712302 0.03425758 -0.011161017 0.15656424 -0.0750087 -0.66478676 -0.06205952 -0.08925269
-1.4020486 0.4200135 0.7262675 0.7772071 0.56993645 -0.12469757 -0.15414344 -0.10384891
0.27165473 -0.22091813 0.71134436 -0.07309563 -0.0017455706 -0.28395325 -0.44553766 0.4445852
-0.38694638 0.11557853 0.7644335 -0.18526924 0.32370037 0.19212446 -0.63927567 -0.004913383
-0.6546489 0.093352206 0.42835146 0.4022216 -0.08739755 0.26850608 0.9743823 -0.04154081
0.35538644 0.23829022 -0.87833726 0.1404764 1.1604047 0.4805585 0.27345806 -0.04837753
0.28952482 0.31564716 0.75188035 -0.5434464 1.0902351 0.3531427 0.077274635 -0.71911585
-0.5690132 -0.91394275 0.061130837 0.016067296 -0.8492002 -0.6534504 -0.18419856 -0.5093868
0.5784039 0.14086695 0.43030843 -0.31799367 0.32477537 -0.71457136 0.058912694 -0.3807104
-0.3702928 -1.2126536 0.24728462 -0.0044200993 0.13142067 0.0049557076 -0.11982112 -0.5098844
0.51966363 0.054845374 -0.4854056 0.27307874 0.6936052 1.1952599 0.5235603 0.13370392
0.43075937 0.057698715 -0.50318974 -0.08354391 -0.6265077 0.6906963 -0.75053227 0.07634923
0.4693498 -0.43666193 -0.2927445 -0.35571268 -1.2847215 0.28257585 0.28986064 -1.2663438
-0.36717203 0.16135766 -0.91605926 0.17064649 -0.92214125 -0.32120514 0.42623428 -0.59949964
0.12652043 -0.23447756 -0.6503216 0.053940672 0.5885771 -0.1040189 0.25217912 0.6763282
-0.115018666 -0.8473131 -0.81585944 -1.4961686 -0.96493167 -2.0561607 -0.8262381 0.4613315
-0.9334716 -0.2871673 -0.15072337 -0.73908716 0.05294368 0.24466255 -0.29991466 -0.06833605
-0.86799836 -0.30275348 -0.05774922 0.017963376 -0.04029617 0.4166834 -0.33364248 -0.83238345
-0.25023952 -0.13139203 -0.45409074 -0.15332733 -0.43046588 0.7846707 -1.1828035 -0.8045249
-0.6521698 -0.53069484 0.27034304 0.80004495 1.0048639 -1.1105686 -0.48256904 -1.6068394
-0.089479394 0.3532967 -0.17455406 0.7785105 0.2748658 -0.13964699 -0.38189876 0.017195381
-1.2920442 0.2420934 1.0006225 -0.7420307 -0.35664997 -0.38217434 0.13624045 -1.2279321
0.74103546 0.30931205 0.52023697 -0.11505768 -0.303454 -0.23285669 -0.13401788 -0.16245705
0.88080096 0.14003108 -0.7810944 0.25004804 0.005375161 0.939527 -0.22325192 -0.39628083
0.1512289 0.3107669 0.846315 0.259767 0.39538836 0.51746136 -0.051623583 0.05165459
-0.1115207 0.42003533 -0.78000534 0.7083375 -0.14564721 -0.4204385 -0.10913482 0.16688229

conv3.bias f4 [32]
00000000: 1226 5a3e de07 efbd 3154 883e d99e f0be
00000010: fc46 613e d581 2a3e cd3d 52bf 1c2e d3bd
00000020: 948d cabe a6bd 78be 82d3 a4bd 721d ecbd
00000030: f312 f7be 21a7 45be 36c7 c63e 910d 4ebf
00000040: 3549 323e 01d6 963e 77d3 0f3f 33f9 e7be
00000050: 37c9 c1be 5885 4abf 18c3 b6be dfe6 6bbe
00000060: ea55 3d3d 9e77 11bc 30e3 803e 22b0 bdbe
00000070: 95ad 233f 4185 61be 606f 0abe 8d5b 16be
0.21303585 -0.116714224 0.26626733 -0.4699619 0.21999735 0.1665109 -0.8212555 -0.10311529
-0.3956114 -0.24291095 -0.080481544 -0.11529054 -0.48256645 -0.19302036 0.3882386 -0.8048945
0.17410739 0.29460147 0.56182045 -0.4530731 -0.37848827 -0.79109716 -0.3569572 -0.23037289
0.046224512 -0.008878617 0.2517333 -0.3704844 0.6393674 -0.22023489 -0.13519049 -0.14683361

bn3.weight f4 [32]
00000000: 89f5 5540 c602 3340 67ef 4d40 8952 3940
00000010: 8196 2840 0f15 7240 9cef 0940 f1e5 6a40
00000020: 093a 2040 c402 3940 c190 1240 33c0 fe3f
00000030: e6f3 1b40 6674 2d40 5966 1140 0185 6a40
00000040: 85b8 0e40 2b1a 6140 c2e6 2340 b1a5 5b40
00000050: 8073 6a40 e2d9 da3f 0929 0740 563b 2b40
00000060: 9c2b 7640 56b1 2240 693f 3840 f7cf d63f
00000070: 53b4 1e40 0540 2240 e06c 6240 82fd 2f40
3.3431113 2.7970443 3.217737 2.8956625 2.634186 3.7825353 2.1552496 3.6702845
2.5035422 2.8907938 2.290085 1.9902405 2.4367614 2.7102294 2.2718718 3.664368
2.2300122 3.5172222 2.5609593 3.431988 3.6632996 1.7097743 2.1118796 2.6754966
3.8464117 2.5420737 2.8788702 1.6782216 2.479756 2.5351574 3.5378952 2.749848

bn3.bias f4 [32]
00000000: f992 ccbf 6923 16bf e788 b5bf 6be5 98bf
00000010: be15 42bf a6ee ed3e 14fc c33e 9e3b cbbf
00000020: dd05 4ebd 6e8a 3dbf 6cdc 73bf ed05 8dbe
00000030: becc 6bbf ffa3 67bf c0cf f6be 131d f0bf
00000040: 6cdb a13e 578b d1bf 2cb9 62bf 5a62 d8bf
00000050: 0f6d 09c0 2207 2ebe 5bec 24bf 3fc8 b03e
00000060: a184 f3bf 8385 45bf a321 6cbf 345f 1abf
00000070: 7906 6bbf ab1b 85bf ccdf babf 7193 6abf
-1.5982352 -0.5864778 -1.4182404 -1.1945013 -0.75814426 0.46471137 0.38278258 -1.5877569
-0.05029856 -0.7403935 -0.9525821 -0.27543584 -0.92109287 -0.90484613 -0.48205376 -1.8758873
0.31612718 -1.6370648 -0.885638 -1.6905015 -2.1472814 -0.16994908 -0.6442315 0.34527776
-1.902485 -0.7715685 -0.92238826 -0.6030152 -0.9180675 -1.0399069 -1.4599547 -0.9163123

bn3.running_mean f4 [32]
00000000: ca1f 86bf 0500 2541 061b 0641 b556 af40
00000010: d001 b0c0 276e d141 4487 28c2 3c00 eb3f
00000020: 5d9c 2bc1 fb4d b540 6612 09c0 82bc d541
00000030: 2785 99bf 49b5 8c40 1801 2ebf 0477 6f41
00000040: 23d8 2e41 426e bb40 f361 14bf 489d b040
00000050: b800 f940 355c fac1 ec2e 0541 a488 f0c1
00000060: f175 4d40 3a3a 0d41 a8e8 3bc1 ac35 c6c1
00000070: dd49 0e40 cbce cfc0 a662 1e41 8448 0ac1
-1.0478451 10.312505 8.3815975 5.4793344 -5.5002213 26.178785 -42.132095 1.8359447
-10.725675 5.665769 -2.141748 26.717045 -1.199376 4.3971295 -0.6797042 14.966557
10.927768 5.857209 -0.5796196 5.5191994 7.7813377 -31.295023 8.323956 -30.06672
3.2103236 8.826715 -11.744301 -24.776207 2.2232583 -6.4939933 9.899084 -8.642704

bn3.running_var f4 [32]
00000000: af32 ea41 c706 9d41 cd48 2842 cb8e d841
00000010: 2581 0c42 472a 1542 80ee 0442 670b fd41
00000020: f3d4 a041 65b8 d541 4934 d441 40f3 9f41
00000030: 3193 ef41 1266 b641 c46f 0a42 179b cf41
00000040: 4005 5a42 7ea5 d741 88ba d441 3134 1c42
00000050: 0f9e f141 3c0e ab41 33ac 9041 f09d 2a42
00000060: fa3f 0e42 e929 c741 502b b041 0100 fe41
00000070: f27c ce41 0721 0842 026d 1b42 65d9 8241
29.274748 19.62831 42.071095 27.069723 35.126118 37.291286 33.23291 31.630568
20.10398 26.715036 26.52553 19.993774 29.94687 22.799839 34.609146 25.950727
54.505127 26.955807 26.59108 39.05097 30.202177 21.38195 18.084082 42.654236
35.562477 24.895464 22.021149 31.750002 25.811008 34.032253 38.856453 16.35615

head.weight f4 [4, 512]
00000000: c171 df3d 257f 5a3f 4855 823e 28bd 7e3e
00000010: 391a a73e bd1c 273f cb2f 493f 5927 cd3e
00000020: d8bf 32c0 d7c0 08bf 50c4 163f 9116 333f
00000030: 6107 3abe 3156 4a3f 7bc6 a63f e4d2 02c0
00000040: 7af5 6fbe 5113 6e3d 2fc2 f63e e34e fd3e
00000050: ee39 3a3f 90b5 983d f337 2f3f 52d1 263f
00000060: fd44 4fc0 308d 5cc0 ddd0 d8bd bec0 d6be
00000070: 5549 6dbe 3942 80bd 77df e13e dae1 143f
00000080: 80b2 9c3f bd06 0c3e edda 3c3f 10bb dd3e
00000090: c39d a8bc b838 963f ef8a 173f 292b 063f
000000a0: df64 fe3d 7cb9 b9bf 0928 573f e9a6 20bf
000000b0: 6399 b3be 643f 0fc0 9902 c0bf 3c40 2bc0
000000c0: 492a 433f b553 9d3e 067f 0ebc 2374 6d3f
000000d0: e34a ce3e b25b bb3e a949 76be e09c 4c3e
000000e0: 03e7 ccbf 79dc c8be 122c 07c0 f821 113f
000000f0: cc15 2e3e 89e4 e43e 59aa c43e 24e7 673d
00000100: 3be8 fb3f aed3 933f 91b7 843f f0ae 6c3c
00000110: bc1a c13e 1ab4 223f 1777 113f c54b 353f
00000120: 44f0 6140 aea9 433f 4806 0b3f 82be 6e3f
00000130: 5dec 723f 5be5 803f 8195 073f 8852 bd3e
00000140: 838f 81bd 5894 52be 631a 343e c207 93bc
00000150: 6747 863d 8dad 23be eae2 b03d a514 133d
00000160: 91bc c0bf 62f0 cabf 8175 5fbf 97f3 71be
00000170: 777a eebe d61a 883e 4b26 13bf 0676 62bf
00000180: d306 663f ca15 8a3f 875b aa3e a6f5 3d3f
00000190: 109b 3b3f 1f6d 053f 0946 513f 5d23 b83f
000001a0: 6918 e13f 8817 933f 5874 8f3f 30cd 6d3f
000001b0: b245 9f3f 27ec b33f 9b62 b33f 2587 4a40
000001c0: f157 5ebe 4e0b 1f3f af09 e33e b8ca f33e
000001d0: c1ad 113f 4035 b2be 5d36 db3e 2d21 983e
000001e0: c0dd 9b40 d91b e93f 546e 2d3d 0100 1f3f
000001f0: e100 513f e095 be3e 4ef4 953e f3a9 89bf
00000200: c1db 96be 22e4 0cbf d087 9ebe f2ee 9ebe
00000210: 8f37 dfbd 2312 bb3c b7d2 fdbe 37db 06bf
00000220: 13f2 4e40 8f38 5a3f 0820 bb3f 4577 8e3e
00000230: e0c7 473f bb4e 613e 7a40 a33f a76f 7b3f
00000240: 0e92 cf3e 3500 fbbc ef5e 70be c215 21be
00000250: 1d62 b5bd 748c b83e ee1b adbe 15fd 8c3e
00000260: 171f 6d3f 8cb5 00bf d508 853f 3d56 003f
00000270: 37ca 0b3f a57c efbd f873 2fbf 9dd3 82c0
00000280: c4f9 203f 530b 603f 59b0 773d 7a37 cb3f
00000290: df5a 6d3e 5482 bf3d 443a e2bd f7af 8e3f
000002a0: a5bb 1940 d384 c43f ea78 743f 7f80 493f
000002b0: ed40 a23f 613a 13be 4cbd 8bbf 651e 2c40
000002c0: cd1b 023f be3a c93e 6966 bb3e cba9 8e3f
000002d0: 28ae 3f3f 4e7a 7b3f 67b5 933e 0db6 b13f
000002e0: 043e 91bf 7147 823e 11d0 b73e 818b ef3e
000002f0: f1ed ef3d 1a86 ab3d be88 703a 69c7 31bf
00000300: 24ee 433f 9b89 edbd 33ce a83e 6f33 a3be
00000310: 4754 aebe 4edd d33e cea3 123f b271 2c3f
00000320: 766d bc3f 491b efbc 9de4 0640 9d62 dc3f
00000330: b8fb 083f 0da8 b13f 4b09 ac3f 7ba9 2f40
00000340: 891b 8b3f 0153 0b3e bf9a 853d c7fc 383f
00000350: 95f5 b4bc 69e2 af3f 8c36 d63e 0b49 6e3f
00000360: c4ac 7d3f f0ab efbd 0946 51be 171e 59bf
00000370: 72e4 473e a346 58bb 2925 85be 72ac 08c0
00000380: bd70 a53e 8eb8 58be 8774 51be 08e0 523e
00000390: c5b9 5cbf ccda 5e3c b841 a5be 99be ce3f
000003a0: 7c8e 3fbf c816 973e 584c 36bf 115c 1840
000003b0: 798e e13f 1469 f43e a6f4 2cbf bb51 833f
000003c0: 4eec b23d 3efc 963e d20b 71bf 1a59 5bbf
000003d0: 8113 973e 36b3 da3e 25fb cbbe 15e7 283f
000003e0: 212f 4bbe a1e1 733f 34ce a43f 5acc bc3f
000003f0: 10c8 5d3f 3a28 d3bf de1e 92bd b80c af40
0.10910369 0.8535026 0.2545569 0.24876845 0.32637194 0.65278226 0.7858855 0.40069082
-2.7929592 -0.5341925 0.588933 0.6995631 -0.18166877 0.7903777 1.3029321 -2.0441217
-0.23433486 0.05812389 0.48195025 0.49474248 0.72744644 0.07456505 0.68444747 0.6516315
-3.2385857 -3.4461174 -0.105867125 -0.41943926 -0.23172505 -0.06262631 0.44115803 0.5815712
1.2241974 0.13674445 0.73771554 0.4330678 -0.02058304 1.1736059 0.5919637 0.5240961
0.124215834 -1.450973 0.84045464 -0.62754685 -0.35077962 -2.238244 -1.5000793 -2.6757956
0.762364 0.30727926 -0.008697277 0.92755336 0.4029151 0.36593395 -0.24051537 0.19981718
-1.6007999 -0.39230707 -2.1120648 0.5669246 0.17000502 0.44705608 0.38411215 0.056616917
1.9680246 1.1548975 1.036852 0.014446005 0.3771571 0.63556063 0.5682234 0.7081874
3.5302896 0.76430786 0.5430646 0.9325944 0.9489191 1.0069994 0.529625 0.3697703
-0.06326201 -0.20564401 0.1758819 -0.017948035 0.06556588 -0.15984173 0.086370304 0.03590836
-1.5057546 -1.5854609 -0.8728867 -0.23628078 -0.46577808 0.26582974 -0.57480305 -0.8846134
0.8985416 1.07879 0.33272955 0.74202955 0.7328348 0.5211963 0.8174749 1.4385792
1.7585574 1.1491556 1.120738 0.92891216 1.2443144 1.4056443 1.4014467 3.1644986
-0.21713234 0.62126625 0.44343325 0.476156 0.5690575 -0.34806252 0.42814913 0.2971281
4.870819 1.8211623 0.042341545 0.6210938 0.81641966 0.3722372 0.29287952 -1.0754989
-0.29464534 -0.55035603 -0.30962992 -0.31041676 -0.10899269 0.022835797 -0.49574825 -0.52678245
3.233525 0.8524255 1.461915 0.2782537 0.7803936 0.2200269 1.2754052 0.9821724
0.40541118 -0.030639747 -0.23473714 -0.15730956 -0.08856604 0.36044657 -0.3381037 0.27536836
0.92625564 -0.5027702 1.039332 0.5013159 0.5460543 -0.11693696 -0.6853633 -4.0883317
0.6288111 0.8751728 0.060470913 1.5876305 0.23179196 0.0935103 -0.110462695 1.114745
2.402078 1.5353035 0.95497 0.78711694 1.2676064 -0.14377739 -1.0917144 2.6893551
0.5082367 0.3930263 0.3660157 1.1145567 0.74875116 0.982335 0.28849337 1.3883682
-1.1347051 0.2544513 0.3590093 0.4678612 0.117153056 0.08375187 0.00091756496 -0.694449
0.7653525 -0.11598512 0.32969818 -0.31875178 -0.34048674 0.4137978 0.57281196 0.67360985
1.4720905 -0.029187815 2.1077034 1.7217594 0.5350909 1.387941 1.3440336 2.7447193
1.0867778 0.13605882 0.06523656 0.7226071 -0.022089759 1.374097 0.4183849 0.93080205
0.99091744 -0.11702716 -0.20436873 -0.8481154 0.19520739 -0.0033001087 -0.26004913 -2.1355252
0.32312575 -0.21164152 -0.20454608 0.20593274 -0.8622096 0.01360197 -0.32276702 1.6151916
-0.7482679 0.29509568 -0.7121024 2.3806193 1.7621604 0.47736418 -0.67560804 1.0259317
0.08736478 0.2948932 -0.9415866 -0.85682833 0.29507068 0.42714852 -0.39840046 0.65977603
-0.19842197 0.9526616 1.2875428 1.4749863 0.86633396 -1.6496651 -0.07134794 5.4703026

head.bias f4 [4]
00000000: 4af9 d03e 8ef8 0340 c7a9 d83f 692e 683f
0.40815192 2.0620456 1.6926812 0.90695816
